Arafat_WS/MLP-12/saved/trained_mlp12-94.0p.pt (torch, 39939 bytes, 4 tensors)

fc1.weight f4 [12, 784]
-5.3457e-41 -5.5711e-41 -5.4866e-41 4.7585e-41 5.4114e-41 -4.926e-41 4.8589e-41 -4.6176e-41
4.6031e-41 -4.5902e-41 -5.2912e-41 -4.9526e-41 6.9318413e-16 -2.157958e-15 -1.9643e-41 4.825e-41
-5.0905e-41 4.948e-41 -5.4265e-41 -4.7325e-41 2.762e-42 -4.7815e-41 -4.4976e-41 4.8147e-41
-4.729e-41 -1.7281e-41 -4.1798e-41 2.0193e-41 -4.962e-41 -5.4614e-41 4.7165e-41 -4.7243e-41
1.13116e-40 6.1676896e-05 0.026398318 0.032726094 0.037167702 0.034958445 0.050342668 0.06462478
0.09045502 0.0992689 0.01753427 0.014855112 0.106294714 0.091512196 0.05966405 0.07582731
0.04312689 0.003449807 0.01684236 0.021673214 -4.9181e-41 6.0629e-41 5.48e-41 5.6383e-41
5.0898e-41 -4.5654e-41 -2.5039484e-09 -9.476e-41 -0.00014945734 0.0068898555 0.05512809 0.08626972
0.007565744 -0.12786432 -0.020951938 0.29619265 0.3508149 0.13474599 0.2206744 0.02846688
0.2918458 0.43550137 0.33037266 0.2777998 0.18088345 0.10245182 0.040767506 0.07294333
0.039004263 0.0012330064 6.0425e-41 4.1805e-41 4.7818e-41 4.87e-41 1.0359994e-09 0.018374247
0.023727115 0.030394841 0.046902634 0.08955132 -0.01658751 -0.37054592 -0.15300465 -0.043481525
-0.16483875 -0.06463751 -0.0074947043 0.12443112 0.05480168 0.10001671 0.33455178 0.44361112
0.5903921 0.43354934 0.27101716 0.24885078 0.16969585 0.038101595 0.027029693 -4.735e-41
4.3802e-41 -1.0165075e-14 0.0076769637 0.010883577 -0.010370651 0.031681836 -0.05353858 -0.03481699
-0.1442465 -0.12213183 -0.014318793 0.09491849 0.017666342 0.03322343 -0.1259436 0.109083034
-0.04445512 0.013617451 0.21206047 -0.019591983 -0.04643667 0.14394335 0.14348194 0.32959968
0.40146318 0.32699102 0.110633776 0.036426686 -5.1138e-41 -5.8312e-41 0.0007197277 0.042083915
-0.022602746 0.10428773 -0.07271143 0.07491697 -0.036972728 0.00809086 -0.010349217 0.012938954
0.090704575 -0.20489836 -0.06590866 -0.10044964 0.17395346 -0.07573165 0.20665093 0.1503365
0.28057826 -0.064125255 0.4180483 0.49810523 0.4422466 0.33151856 0.15565462 0.042417236
4.4085e-41 2.3097764e-05 -0.0030524412 -0.046034243 0.005461335 0.085290074 -0.057285707 0.0673845
-0.131048 0.1224712 -0.19177093 0.117583506 -0.031757195 0.0009075872 0.14961357 -0.03602301
0.06621706 0.1281992 0.077843085 0.016344458 0.07446477 -0.04062348 -0.21150176 0.1313046
0.72737414 0.58002275 0.26296937 0.033461325 -5.3694e-41 -0.010498273 -0.045021392 -0.07540757
0.03346507 0.24109358 -0.10447369 -0.13513467 0.00513468 0.11135988 -0.0138452975 -0.008595896
-0.11128584 0.009249987 0.24287999 0.014402071 0.06924625 0.08829843 0.20391223 0.093695186
0.16495621 0.11852871 0.10241016 0.26597673 0.6569221 0.6535678 0.3425957 0.027671475
3.5733e-41 7.569763e-05 -0.14235629 -0.14651495 -0.01207233 -0.019962551 -0.10680139 -0.082637824
-0.004309082 -0.05904849 -0.094038315 0.16824594 -0.11575119 -0.06830927 -0.021893019 0.0030833278
0.2303093 0.1750715 0.07934543 0.22694229 0.59923047 0.622044 0.72286904 0.83960915
0.84161687 0.53100103 0.23190598 0.015435069 -4.4661e-41 0.00010465994 -0.13856918 -0.07874506
00000000: 0495 0080 4d9b 0080 f298 0080 a684 0000
00000010: d996 0000 5189 0080 7287 0000 b880 0080
00000020: 5180 0000 f57f 0080 7f93 0080 0f8a 0080
00000030: f6cb 4726 4d7f 1ba7 c236 0080 8086 0000
00000040: e78d 0080 ee89 0000 4597 0080 ec83 0080
00000050: b307 0000 4a85 0080 607d 0080 3786 0000
00000060: d383 0080 2c30 0080 8474 0080 4a38 0000
00000070: 528a 0080 3e98 0080 7a83 0000 b283 0080
00000080: 523b 0100 8858 8138 4941 d83c cc0b 063d
00000090: 293d 183d 9630 0f3d 1d34 4e3d ff59 843d
000000a0: 7b40 b93d 7e4d cb3d 08a4 8f3c db62 733c
000000b0: 0bb1 d93d bf6a bb3d 4a62 743d 594b 9b3d
000000c0: d2a5 303d 2816 623b fdf8 893c 068c b13c
000000d0: 1989 0080 02a9 0000 c398 0000 2c9d 0000
000000e0: e28d 0000 447f 0080 ed11 2cb1 2708 0180
000000f0: a6b7 1cb9 4cc4 e13b fecd 613d 2eae b03d
00000100: 10ea f73b ddee 02be 66a3 abbc 90a6 973e
00000110: 039e b33e dafa 093e 78f8 613e 6033 e93c
00000120: d06c 953e 09fa de3e 9b26 a93e c63b 8e3e
00000130: 8339 393e 43d2 d13d d4fb 263d 5063 953d
00000140: efc2 1f3d d49c a13a 71a8 0000 8974 0000
00000150: 4c85 0000 c187 0000 fd62 8e30 9785 963c
00000160: 5e5f c23c 9afe f83c fa1c 403d af66 b73d
00000170: 88e2 87bc 32b8 bdbe 40ad 1cbe af19 32bd
00000180: 7dcb 28be ac60 84bd 2396 f5bb bed5 fe3d
00000190: ba77 603d 90d5 cc3d 5f4a ab3e ff20 e33e
000001a0: f023 173f 2efa dd3e c3c2 8a3e bdd2 7e3e
000001b0: c0c4 2d3e 6b10 1c3d 606d dd3c fe83 0080
000001c0: 1a7a 0000 221e 37a8 0a8f fb3b 0851 323c
000001d0: aae9 29bc d0c4 013d 454b 5bbd 439c 0ebd
000001e0: 5bb5 13be 4120 fabd 5f99 6abc a064 c23d
000001f0: 01b9 903c 4b15 083d 5cf7 00be ed66 df3d
00000200: 9216 36bd bb1b 5f3c 6126 593e 5e7f a0bc
00000210: 6134 3ebd e365 133e eeec 123e 4ac1 a83e
00000220: 958c cd3e 5e6b a73e f693 e23d 2634 153d
00000230: 8d8e 0080 8da2 0080 1cac 3c3a 2f60 2c3d
00000240: 6529 b9bc ce94 d53d bbe9 94bd 126e 993d
00000250: b770 17bd 878f 043c c38f 29bc e8fd 533c
00000260: 52c3 b93d e0d0 51be 1ffb 86bd 8ab8 cdbd
00000270: db20 323e 3219 9bbd 4d9c 533e d0f1 193e
00000280: f4a7 8f3e 1a54 83bd 6d0a d63e a607 ff3e
00000290: 256e e23e cdbc a93e ed63 1f3e b2bd 2d3d
000002a0: e47a 0000 12c2 c137 770b 48bb 678e 3cbd
000002b0: 00f5 b23b 90ac ae3d 6ba4 6abd e200 8a3d
000002c0: 7231 06be 2ed2 fa3d 995f 44be 9fcf f03d
000002d0: d513 02bd 25eb 6d3a 4d34 193e dd8c 13bd
000002e0: cf9c 873d a746 033e 326c 9f3d d0e4 853c
000002f0: fc80 983d ce64 26bd eb93 58be b774 063e
00000300: 3135 3a3f 5f7c 143f eca3 863e be0e 093d
00000310: ad95 0080 f300 2cbc 5a68 38bd 496f 9abd
00000320: ab12 093d 3ce1 763e 4df6 d5bd be60 0abe
00000330: d140 a83b a610 e43d 63d7 62bc cdd5 0cbc
00000340: d5e9 e3bd 428d 173c 88b5 783e aaf6 6b3c
00000350: fad0 8d3d cfd5 b43d 5ece 503e 43e3 bf3d
00000360: 48ea 283e 2ebf f23d 6bbc d13d 1a2e 883e
00000370: 0c2c 283f 3850 273f b468 af3e 4aaf e23c
00000380: 9c63 0000 dbbf 9e38 d9c5 11be 0408 16be
00000390: 06cb 45bc 8188 a3bc b0ba dabd 053e a9bd
000003a0: 3333 8dbb d4dc 71bd 2997 c0bd aa48 2c3e
000003b0: f60e edbd bbe5 8bbd fd58 b3bc a811 4a3b
000003c0: 33d6 6b3e f145 333e db7f a23d 8f63 683e
000003d0: 2b67 193f 473e 1f3f f20d 393f a0f0 563f
000003e0: 3474 573f afef 073f c378 6d3e 5fe3 7c3c
000003f0: 7f7c 0080 e17c db38 14e5 0dbe 1745 a1bd

fc1.bias f4 [12]
0.4436907 -1.5862571 0.88241225 1.2672118 1.5249269 1.5235357 2.7896037 1.902682
3.3597062 1.4631664 -0.7308407 0.28670046
00000000: 6d2b e33e 790a cbbf c5e5 613f ff33 a23f
00000010: ce30 c33f 3803 c33f de88 3240 158b f33f
00000020: 6d05 5740 0949 bb3f 6018 3bbf 67ca 923e

fc2.weight f4 [10, 12]
-0.8059504 -0.3356142 0.34151858 -1.5228827 -0.41412258 0.38224941 -0.9370839 -1.116872
0.44677952 -0.2917392 -0.9056704 -1.4774742 -1.2133845 -0.49922556 -0.6149167 0.62565476
-0.6711561 -0.8593523 0.46255583 0.41503385 -0.98862994 -0.6466379 -0.67519295 -0.07272898
-0.6130658 0.30543935 0.44769514 0.91110766 -0.023840295 -0.10049619 -0.6042512 -0.42301476
-0.12927517 0.33886853 -0.22890498 -0.26123136 0.64260834 0.3111411 0.44281635 0.55946326
-0.23855379 0.026213055 -0.058801766 0.3379118 -0.28790385 -0.2428181 0.12603754 0.92175734
-1.2644802 -0.6298481 -0.43349028 -1.3295933 0.50261045 -0.42180204 -0.56653106 0.47033456
0.40077952 0.3421001 0.34975123 0.082165785 0.9267658 0.029985577 -0.28605264 -0.49919778
-0.45759353 0.029003054 0.46763426 -0.41489348 0.36925045 -0.048681222 0.23373419 0.8714134
0.68410003 -2.4442778 -0.96178275 -0.63167804 0.34503102 -0.8856305 -1.1679503 -1.1073569
-0.3655474 0.3671399 -0.8302347 -1.8539056 -0.5820775 0.3218703 0.28996918 0.72671276
0.5500624 0.32132983 0.43201727 0.4184079 0.4248318 -0.40869594 -0.1193824 -0.9719267
-0.102730446 0.29083502 -0.45995852 -0.62786704 -0.7004034 -0.27108365 -0.03040235 -0.31444708
-0.3295956 -0.5369695 0.35016403 -0.5348046 -0.07726298 0.15181777 -0.75580007 -1.4751599
0.38709944 0.28846446 0.28308254 0.39702606 -0.2901964 0.24432635 0.33767602 0.61742306
00000000: c452 4ebf a0d5 abbe 86db ae3e d2ed c2bf
00000010: e007 d4be 32b6 c33e bbe4 6fbf a9f5 8ebf
00000020: 49c0 e43e d75e 95be 04da 67bf e01d bdbf
00000030: 2f50 9bbf 7e9a ffbe 2e6b 1dbf e92a 203f
00000040: e3d0 2bbf 83fe 5bbf 1ed4 ec3e 517f d43e
00000050: da16 7dbf 108a 25bf 72d9 2cbf eef2 94bd
00000060: e1f1 1cbf 8c62 9c3e 4c38 e53e 5a3e 693f
00000070: b94c c3bc f2d0 cdbd 35b0 1abf 6495 d8be
00000080: b660 04be 2d80 ad3e 1166 6abe 1ec0 85be
00000090: fb81 243f e34d 9f3e d3b8 e23e fc38 0f3f
000000a0: 7247 74be c3bc d63c 1fda 70bd c702 ad3e
000000b0: 2268 93be 4fa5 78be fc0f 013e 4af8 6b3f
000000c0: 7dda a1bf ba3d 21bf 70f2 ddbe 1d30 aabf
000000d0: 14ab 003f 70f6 d7be 2e08 11bf b1cf f03e
000000e0: f932 cd3e bf27 af3e 9812 b33e 8946 a83d
000000f0: 8640 6d3f 50a4 f53c 7e75 92be da96 ffbe
00000100: b349 eabe d097 ed3c c26d ef3e eb6c d4be
00000110: 650e bd3e f665 47bd 0458 6f3e f314 5f3f
00000120: 2e21 2f3f 0c6f 1cc0 6537 76bf a7b5 21bf
00000130: e8a7 b03e aeb8 62bf 657f 95bf dfbd 8dbf
00000140: 0729 bbbe c3f9 bb3e 438a 54bf c74c edbf
00000150: 0803 15bf 2fcc a43e d776 943e d909 3a3f
00000160: e4d0 0c3f 5885 a43e 5e31 dd3e 8f39 d63e
00000170: 8e83 d93e 9840 d1be c27e f4bd 30d0 78bf
00000180: 5764 d2bd 54e8 943e af7f ebbe e5bb 20bf
00000190: a34d 33bf 7acb 8abe 590e f9bc 35ff a0be
000001a0: c1c0 a8be d576 09bf b348 b33e f4e8 08bf
000001b0: 0e3c 9ebd 1e76 1b3e 1d7c 41bf 0ad2 bcbf
000001c0: e631 c63e 9db1 933e 32f0 903e 0047 cb3e
000001d0: 9f94 94be b030 7a3e dfe3 ac3e 700f 1e3f

fc2.bias f4 [10]
1.4495132 1.8520813 -0.13637783 -1.4413912 -0.73957783 -0.5529069 2.3550823 -3.2349203
2.3637073 -1.6567452
00000000: a689 b93f 0011 ed3f a1a6 0bbe 827f b8bf
00000010: f954 3dbf 4e8b 0dbf abb9 1640 ef08 4fc0
00000020: fb46 1740 3a10 d4bf
