Arafat_WS/MLP-100/saved/trained_mlp100-98.11p.pt (torch, 360783 bytes, 6 tensors)

fc1.weight f4 [100, 784]
0	0x8001ea05	-1.75786e-40
1	0x80017fe8	-1.3772e-40
2	0x0000166f	8.048e-42
3	0x80009c60	-5.6097e-41
4	0x8001c48b	-1.62342e-40
5	0x0000f9a9	8.9561e-41
6	0x00001837	8.687e-42
7	0x8000a894	-6.0474e-41
8	0x80005175	-2.9221e-41
9	0x8000e7b2	-8.3117e-41
10	0x800122f0	-1.04369e-40
11	0x0000ef06	8.5745e-41
12	0x00012dae	1.08222e-40
13	0x00008e87	5.1129e-41
14	0x80016904	-1.29508e-40
15	0x0001629e	1.27213e-40
16	0x0001ec5c	1.76625e-40
17	0x80014895	-1.17873e-40
18	0x0000919a	5.2232e-41
19	0x800123c6	-1.04669e-40
20	0x80010a90	-9.5625e-41
21	0x00008dad	5.0824e-41
22	0x00014888	1.17855e-40
23	0x8000c36a	-7.0101e-41
24	0x8000c721	-7.1434e-41
25	0x80017304	-1.33095e-40
26	0x80000536	-1.87e-42
27	0x80009980	-5.5065e-41
28	0x00008f36	5.1374e-41
29	0x000155de	1.22639e-40
30	0x80000376	-1.242e-42
31	0x8001bf6b	-1.60503e-40
32	0x0000f7f1	8.8945e-41
33	0x000015b6	7.788e-42
34	0x80000247	-8.17e-43
35	0x80012984	-1.06728e-40
36	0x0001b35a	1.56175e-40
37	0x8001f098	-1.78144e-40
38	0x0000a882	6.0449e-41
39	0x8001ceb4	-1.65987e-40
40	0x00000a8e	3.786e-42
41	0x800159a2	-1.2399e-40
42	0x8001e4a3	-1.73855e-40
43	0x0000114c	6.205e-42
44	0x8000a5f3	-5.9531e-41
45	0x80020d9c	-1.88553e-40
46	0x8000be69	-6.8306e-41
47	0x8000e4e2	-8.2108e-41
48	0x800197b8	-1.46262e-40
49	0x80011cbe	-1.02146e-40
50	0x00000886	3.058e-42
51	0x0001d835	1.69396e-40
52	0x8000a853	-6.0383e-41
53	0x00009469	5.324e-41
54	0x8000e451	-8.1904e-41
55	0x00009d49	5.6423e-41
56	0x80010af7	-9.5769e-41
57	0x000004c9	1.717e-42
58	0x00008a6a	4.9654e-41
59	0x00000465	1.576e-42
60	0x000200f6	1.84016e-40
61	0x000129f0	1.0688e-40
62	0x0001dc35	1.70831e-40
63	0x00013a53	1.12758e-40
64	0x80012242	-1.04125e-40
65	0x00016879	1.29313e-40
66	0x000175aa	1.34045e-40
67	0x80011369	-9.8799e-41
68	0x80014609	-1.1696e-40
69	0x0000de48	7.974e-41
70	0x8000ee84	-8.5563e-41
71	0x800062fa	-3.5506e-41
72	0x8000151f	-7.577e-42
73	0x0001db67	1.70542e-40
74	0x80006a4f	-3.8136e-41
75	0x80009d68	-5.6467e-41
76	0x80004a08	-2.6557e-41
77	0x0001ab78	1.53347e-40
78	0x80008b7a	-5.0035e-41
79	0x0001ccc3	1.6529e-40
80	0x000130c0	1.09324e-40
81	0x0001ad87	1.54085e-40
82	0x0000aa0f	6.1006e-41
83	0x8001d7ab	-1.69203e-40
84	0x80018d5e	-1.42548e-40
85	0x8000abd6	-6.1643e-41
86	0x800066c3	-3.6864e-41
87	0x800173eb	-1.33419e-40
88	0x00019017	1.43525e-40
89	0x0001aa9c	1.53039e-40
90	0x00014467	1.16374e-40
91	0x8000cee8	-7.4224e-41
92	0x0000022b	7.78e-43
93	0x00000e4a	5.126e-42
94	0x0000bcc7	6.772e-41
95	0x00004b4c	2.7011e-41
96	0x0000a2b9	5.8374e-41
97	0x00003106	1.7586e-41
98	0x0000b832	6.6077e-41
99	0x8000bc34	-6.7515e-41
100	0x0000be07	6.8169e-41
101	0x800074ba	-4.1874e-41
102	0x0000a457	5.8954e-41
103	0x8000e04f	-8.0467e-41
104	0x8000c7dd	-7.1697e-41
105	0x8000549b	-3.0351e-41
106	0x8000a0a7	-5.7631e-41
107	0x80014e06	-1.19825e-40
108	0x0000df05	8.0004e-41
109	0x00004869	2.5976e-41
110	0x000155b6	1.22583e-40
111	0x00013102	1.09416e-40
112	0x80009164	-5.2156e-41
113	0x80013ce9	-1.13686e-40
114	0x0000ee3a	8.546e-41
115	0x80004c2b	-2.7324e-41
116	0x800206cd	-1.8611e-40
117	0x000048ec	2.616e-41
118	0x80008dcd	-5.0869e-41
119	0x800002be	-9.84e-43
120	0x80008c70	-5.038e-41
121	0x0103fe44	2.4243327e-38
122	0x8b80e772	-4.9652047e-32
123	0x956e0dfa	-4.8074743e-26
124	0x0cf9b91d	3.8475935e-31
125	0x0d36db1b	5.634682e-31
126	0x099474e1	3.5739616e-33
127	0x80011c78	-1.02048e-40
128	0x0000189c	8.828e-42
129	0x0000bac1	6.6995e-41
130	0x00002e5c	1.663e-41
131	0x8000c027	-6.8931e-41
132	0x80005b0c	-3.2661e-41
133	0x80001634	-7.965e-42
134	0x000043c3	2.4308e-41
135	0x8001069a	-9.4204e-41
136	0x0000e861	8.3362e-41
137	0x00019ee7	1.48839e-40
138	0x0000799c	4.3625e-41
139	0x8001e2d9	-1.73213e-40
140	0x0001352a	1.10907e-40
141	0x00019cce	1.48086e-40
142	0x8000d0fc	-7.497e-41
143	0x00012fb5	1.0895e-40
144	0x0001456d	1.16741e-40
145	0x800138d5	-1.12223e-40
146	0x0000a3e2	5.879e-41
147	0x8000795c	-4.3536e-41
148	0x94bdfd7b	-1.9184103e-26
149	0x9508fa57	-2.7662465e-26
150	0x9caf4382	-1.1597979e-21
151	0xa3cc497b	-2.2148845e-17
152	0xa2034d99	-1.779489e-18
153	0xa459cbf0	-4.7227116e-17
154	0xa8b6238a	-2.0221472e-14
155	0xaa9fdb56	-2.8396269e-13
156	0xa907f8b1	-3.0191727e-14
157	0xa4002b7b	-2.7792405e-17
158	0xa12d3220	-5.868102e-19
159	0x9504fec3	-2.685816e-26
160	0x80004f4f	-2.845e-41
161	0x8000a089	-5.7589e-41
162	0x8000b884	-6.6192e-41
163	0x0000b607	6.5299e-41
164	0x80008861	-4.8924e-41
165	0x00015c4b	1.24944e-40
166	0x8001985a	-1.46489e-40
167	0x8001a1cc	-1.49877e-40
168	0x000024fa	1.3265e-41
169	0x00014dbc	1.19721e-40
170	0x00019594	1.45494e-40
171	0x80010bde	-9.6093e-41
172	0x0000c85b	7.1874e-41
173	0x8000e370	-8.1589e-41
174	0x000056f4	3.1193e-41
175	0x8d451373	-6.0728723e-31
176	0xa00ae117	-1.1763531e-19
177	0xa7faae40	-6.957786e-15
178	0xaac4c14b	-3.4950718e-13
179	0xac4e179c	-2.9287467e-12
180	0xab4cb6a8	-7.2728846e-13
181	0xac26ed53	-2.372176e-12
182	0xadac2c88	-1.9573912e-11
183	0xad4def39	-1.1706019e-11
184	0xad1b2fc4	-8.821336e-12
185	0xac3a69ca	-2.6490914e-12
186	0xa9e66779	-1.02320015e-13
187	0xa5a02bee	-2.7785344e-16
188	0xa1c74568	-1.3503136e-18
189	0xa1db8a23	-1.4876582e-18
190	0x00004c58	2.7387e-41
191	0x0000d054	7.4734e-41
192	0x0000e2b3	8.1324e-41
193	0x80003349	-1.8398e-41
194	0x800095fc	-5.3804e-41
195	0x0000fe6e	9.1272e-41
196	0x8000440c	-2.441e-41
197	0x0001ecac	1.76737e-40
198	0x80012688	-1.05658e-40
199	0x0001387c	1.12098e-40
200	0x978d5d05	-9.135393e-25
201	0x99bca767	-1.9506358e-23
202	0x8000a645	-5.9646e-41
203	0x89ac1f0e	-4.1436697e-33
204	0xa71e5785	-2.197435e-15
205	0xacaecda7	-4.9682094e-12
206	0xae47349a	-4.529408e-11
207	0xacd98183	-6.1818896e-12
208	0xa99cda52	-6.965664e-14
209	0x2370dfad	1.3057791e-17
210	0xa45995b5	-4.718118e-17
211	0xa6859d27	-9.271325e-16
212	0xaa990963	-2.7184773e-13
213	0xaaf0a97e	-4.2750173e-13
214	0xab0ca6cc	-4.996947e-13
215	0xa9908c77	-6.4192514e-14
216	0xab7dc249	-9.015328e-13
217	0x9bb2a275	-2.9552615e-22
218	0x0200df37	9.468014e-38
219	0x80005615	-3.088e-41
220	0x80006dff	-3.9459e-41
221	0x80003d4c	-2.1989e-41
222	0x0000e377	8.1599e-41
223	0x00011005	9.7582e-41
224	0x0000916a	5.2165e-41
225	0x0001773f	1.34613e-40
226	0x0002325f	2.01741e-40
227	0x800000cf	-2.9e-43
228	0x94bcd105	-1.9065592e-26
229	0xa35e002e	-1.2034682e-17
230	0x8e0af2a9	-1.712665e-30
231	0xa13b35e7	-6.3429404e-19
232	0xa7a92103	-4.6942714e-15
233	0xabab35e3	-1.2165237e-12
234	0xab85e353	-9.513314e-13
235	0xa99ee949	-7.057078e-14
236	0xa51263aa	-1.2697249e-16
237	0xa39e0796	-1.7133607e-17
238	0xa461c305	-4.8954286e-17
239	0xa97cd1cd	-5.6137214e-14
240	0xa98886b9	-6.062984e-14
241	0xaa2d072d	-1.5367976e-13
242	0xa8e462da	-2.5355955e-14
243	0xad8fee23	-1.6362972e-11
244	0xac278ec9	-2.381139e-12
245	0x9d227901	-2.150308e-21
246	0x0000742e	4.1677e-41
247	0x00003b12	2.119e-41
248	0x0000bb6d	6.7236e-41
249	0x0000c275	6.9758e-41
250	0x00008edb	5.1247e-41
251	0x00001315	6.845e-42
252	0x00012bf4	1.07603e-40
253	0x0001840f	1.39209e-40
254	0x80015af5	-1.24465e-40
255	0x80019f84	-1.49059e-40

fc1.bias f4 [100]
0	0xb3eb91f1	-1.0969587e-07
1	0xbf6b905b	-0.92017144
2	0x3de87a21	0.11351419
3	0xbe32bdda	-0.17455235
4	0x963dfcc3	-1.5347056e-25
5	0x9a19198c	-3.1660295e-23
6	0x3b5a6f4b	0.0033330496
7	0x3cb19da3	0.021681612
8	0xbf273b35	-0.6532472
9	0x9ba75a83	-2.7686324e-22
10	0xbe6dfac2	-0.23240188
11	0xbf3f884e	-0.7481736
12	0x3c018dd0	0.007907346
13	0xae6637e6	-5.2345593e-11
14	0x3e504986	0.20340547
15	0xbee9f076	-0.4569127
16	0xbaf5048f	-0.0018693375
17	0xbdb0bdf3	-0.0862998
18	0x3ea4f975	0.3222157
19	0xbded30e0	-0.11581588
20	0xaadd4479	-3.9304999e-13
21	0xbdaa02be	-0.08301304
22	0x3ea66e56	0.32506055
23	0xb8052af0	-3.174966e-05
24	0x3e1d5855	0.15365727
25	0xbefb932a	-0.49135715
26	0xbe959e04	-0.2922212
27	0xbe1db93d	-0.15402694
28	0xbf122a40	-0.5709572
29	0xbdb2a5a7	-0.08723002
30	0x3ea93f8a	0.3305629
31	0xba32221b	-0.0006795243
32	0xbd1ba23c	-0.037996516
33	0x3d07fa19	0.033197496
34	0x3b865fe5	0.004100787
35	0x3c36e980	0.011164069
36	0xbb889e66	-0.004169273
37	0xbeae51a5	-0.34046665
38	0xbcac7d60	-0.021055877
39	0x90b004a2	-6.94269e-29
40	0xbaadaa19	-0.0013249546
41	0x3e057646	0.13033399
42	0x3dfc6087	0.12323099
43	0xbe135c0d	-0.14390583
44	0x3e007851	0.12545897
45	0xbc9f304f	-0.019432215
46	0xbcfb3e5f	-0.03066939
47	0xbd84dc7b	-0.06487366
48	0xb5b57845	-1.3520554e-06
49	0xb8f5803c	-0.00011706396
50	0x3b554de7	0.0032547654
51	0xbe83a97e	-0.2571525
52	0x3e31a5d9	0.17348422
53	0xb77591ff	-1.463713e-05
54	0x3e8c368f	0.27385375
55	0xbe993b48	-0.2992804
56	0xa619526a	-5.319423e-16
57	0x3ea408cd	0.32037964
58	0x3cefb9fd	0.02926349
59	0x3e16dcf6	0.14732727
60	0x3e647628	0.22310698
61	0xbc9d9b25	-0.019239018
62	0xbf18ce34	-0.5968964
63	0x3e220989	0.1582395
64	0x3d95079b	0.07276841
65	0x3ef35891	0.47528508
66	0xbe812e38	-0.25230575
67	0x3eac05a1	0.33598045
68	0xbed93121	-0.42420295
69	0x3b974d1f	0.004617348
70	0xbf1547fd	-0.5831297
71	0xbe6847e6	-0.22683677
72	0xbd0f7b7f	-0.035029884
73	0x3d8e1cb8	0.069390714
74	0x3e2407ae	0.16018555
75	0xad9e21a7	-1.7977465e-11
76	0xbf7e5316	-0.9934553
77	0xbeaa1d43	-0.3322545
78	0x3e0185cb	0.12648694
79	0xbe026d40	-0.12736988
80	0xbe4812d8	-0.19538438
81	0xbd70b019	-0.05876169
82	0x3ee7bd05	0.45261398
83	0xbe8afbb2	-0.27145153
84	0x9337e816	-2.3212275e-27
85	0xbee8b9b7	-0.4545419
86	0xbd2b61fd	-0.041841496
87	0xbe8a89c6	-0.27058238
88	0xbe0b96ea	-0.13631788
89	0xbebcd3e0	-0.36880398
90	0x3e7d03d6	0.24708495
91	0xbea24234	-0.31691134
92	0xbb787266	-0.0037909984
93	0x3d4cbfda	0.04998765
94	0x3dd1a2c7	0.102361254
95	0xba3a222a	-0.0007100428
96	0x3d223840	0.039604425
97	0xbdd46438	-0.10370678
98	0xb8e32a2a	-0.00010832057
99	0xbd81b2be	-0.063329205

fc2.weight f4 [100, 100]
0	0x31c77f06	5.806103e-09
1	0x3dbf4b82	0.09340574
2	0xbcf76afe	-0.030202385
3	0xbdf3a906	-0.11897473
4	0xb1f1abb3	-7.033543e-09
5	0x960d8597	-1.1432043e-25
6	0x3c22b3c2	0.009930553
7	0xbcd84cee	-0.02640387
8	0xbd2e0966	-0.04248943
9	0xb1e28b84	-6.5933268e-09
10	0x3d4a0246	0.049318574
11	0x3cf2040f	0.02954295
12	0x3c809000	0.015693665
13	0x17f0632d	1.5534672e-24
14	0x3c8821e2	0.01661772
15	0x3d720298	0.059084505
16	0xbbf483c5	-0.007461997
17	0xbd9acc66	-0.07558517
18	0xbe256888	-0.16153157
19	0x3d196e22	0.037458546
20	0x05dcee4a	2.0776234e-35
21	0x3e6e0522	0.23244146
22	0x3d93108f	0.07180893
23	0x3609910e	2.0499024e-06
24	0x3d2440b3	0.040100764
25	0x3d93a083	0.072083496
26	0x3d110761	0.035407428
27	0x3de33f36	0.11096041
28	0xbd19c98b	-0.037545722
29	0xbdcebf7b	-0.10095116
30	0x3d2386d0	0.03992349
31	0xbded7a46	-0.115955874
32	0xbdc61f6c	-0.09673962
33	0xbd16923a	-0.036760546
34	0x3c4d2719	0.012521529
35	0xbd585fe5	-0.052825827
36	0x3c1c8b8c	0.009554755
37	0x3e74f510	0.23921609
38	0x3d7c43c2	0.061588056
39	0x1c100090	4.764633e-22
40	0x3a3468a5	0.00068820483
41	0xbe5ab2d5	-0.21357282
42	0xbd1264c7	-0.03574064
43	0xbc4b71c8	-0.012417264
44	0x3d922f86	0.071379706
45	0x3e38c9bb	0.18045704
46	0x3de01eb4	0.10943356
47	0x3d783029	0.060592804
48	0xa157da2c	-7.313358e-19
49	0xb90598d3	-0.000127408
50	0x3c2aeaf2	0.010431992
51	0x3db66bef	0.089073054
52	0x3c9de46e	0.019273963
53	0x39c42a83	0.00037415707
54	0xbe3ac0e0	-0.18237638
55	0x3d67e689	0.05661634
56	0xa2883b4d	-3.692566e-18
57	0xbe47fd96	-0.19530329
58	0x3bd6a5fe	0.0065505495
59	0xbe302a84	-0.17203718
60	0xbe0e8e6b	-0.13921516
61	0x3d07060c	0.03296475
62	0xbd754858	-0.059883446
63	0xbe672c17	-0.22575413
64	0x3cb5267c	0.022113077
65	0xbd24e226	-0.040254734
66	0x3ccfcee3	0.025367206
67	0xbe186b3d	-0.14884658
68	0xbcb6bcea	-0.022306878
69	0x3b967e85	0.004592719
70	0xbdb2d4fa	-0.08732028
71	0xbe08c669	-0.13356937
72	0xbd3295f3	-0.043600034
73	0x3e082d66	0.13298568
74	0xbdd94526	-0.10608892
75	0xb982118b	-0.00024808603
76	0x3df26cc3	0.11837151
77	0x3dd30c04	0.10305026
78	0xbc83849d	-0.016054446
79	0x3e03a40b	0.12855546
80	0xbb51589e	-0.003194369
81	0xbd1c9d71	-0.038236085
82	0xbe7581cc	-0.23975295
83	0xbe1771f6	-0.14789566
84	0x313c71f1	2.7422369e-09
85	0xbb32b32b	-0.0027267437
86	0x3d92c37c	0.07166192
87	0x3d28feb8	0.041258544
88	0xbdfd46cc	-0.12367019
89	0x3e03b88f	0.12863372
90	0xbe00675a	-0.12539425
91	0x3d6c0105	0.05761816
92	0xbd2f3f51	-0.042784993
93	0xbbdf56fb	-0.006815789
94	0x3d22bf93	0.03973348
95	0xbbef90d6	-0.007310967
96	0xbb8b2add	-0.004247053
97	0x3e8ab8a4	0.27093995
98	0xbb970b25	-0.004609483
99	0x3d47b85c	0.048759803
100	0x3b2230ad	0.0024748251
101	0xbe9f02ff	-0.31056973
102	0xbe3906b8	-0.18068969
103	0xbdf381ef	-0.11890017
104	0xb87798ab	-5.9031572e-05
105	0x33101032	3.3542342e-08
106	0xbbb174f7	-0.0054155546
107	0xbd9df7fe	-0.077133164
108	0x3c9f25bf	0.019427178
109	0xad0f4fc3	-8.1463196e-12
110	0xbe3d6de6	-0.18498954
111	0x3ca93213	0.02065376
112	0xbc00b886	-0.007856494
113	0xb4fceccd	-4.7110953e-07
114	0xbd7c6370	-0.06161827
115	0xbe9e4edb	-0.30919537
116	0x3d06e014	0.03292854
117	0xbe4635e4	-0.19356495
118	0x3c599b4b	0.013281654
119	0xbe429aa0	-0.19004297
120	0x369b827d	4.634551e-06
121	0xbeccab51	-0.39974454
122	0xbed41e6a	-0.41429454
123	0x3a068a97	0.0005132346
124	0x3c334355	0.010941346
125	0xbe3940a2	-0.18091062
126	0xbe3ace56	-0.18242773
127	0xbd385f53	-0.045012783
128	0xbe10b7d6	-0.14132628
129	0xbcff824c	-0.03119006
130	0xbd012ba3	-0.031535756
131	0xbc67327e	-0.014111159
132	0xbe9b0bc2	-0.30282408
133	0xbbcea8c0	-0.0063067377
134	0x3c525183	0.012836817
135	0xbc5ca0bf	-0.013466059
136	0x3c990828	0.018680647
137	0x3e520bce	0.20512316
138	0xbe47acc5	-0.194995
139	0x33357c0e	4.2255174e-08
140	0xba176bce	-0.0005776257
141	0xbd0023be	-0.031284086
142	0xbd0166d3	-0.0315922
143	0xbec3867e	-0.38188547
144	0x3d364e43	0.04450823
145	0xbeac49d6	-0.33650082
146	0xbb9d1710	-0.004794009
147	0xbe2e3a32	-0.17014387
148	0x370c7688	8.372248e-06
149	0x389ea421	7.5645985e-05
150	0x3b944cde	0.004525765
151	0xbe2afa2b	-0.16696994
152	0xbd0cec26	-0.034404896
153	0x39e16996	0.00042994012
154	0xbdea4c0a	-0.114402846
155	0xbe1a401d	-0.1506352
156	0xa65f59dc	-7.749045e-16
157	0xbe896a2e	-0.2683882
158	0xbe45b393	-0.19306783
159	0xbe12fa42	-0.14353278
160	0xbce185d2	-0.02752963
161	0xbd7f6b4a	-0.06235818
162	0xbe60c9ef	-0.21952032
163	0x3c9c00f5	0.019043425
164	0xbe105dd5	-0.14098294
165	0xbe8fb764	-0.28069603
166	0xbe98c8d1	-0.2984071
167	0xbdd74a5d	-0.105122305
168	0xbe0be5b2	-0.1366184
169	0x3d0acc6a	0.03388635
170	0xbedd6671	-0.4324222
171	0xbc8014b2	-0.015634868
172	0xbe95d6b9	-0.29265383
173	0xbe836529	-0.25663117
174	0xbe86549f	-0.26236436
175	0xba735695	-0.0009282616
176	0xbd2ab369	-0.041675005
177	0xbdc062f4	-0.09393874
178	0xbe951c6f	-0.29123256
179	0x39588253	0.00020647915
180	0xbc5fb01e	-0.013652829
181	0xbea235a1	-0.3168154
182	0xbe35fcc8	-0.1777221
183	0xbdfe98ca	-0.12431486
184	0x376c0397	1.4067532e-05
185	0xbccc587c	-0.024944536
186	0xbecc1d34	-0.3986603
187	0xbe7b3304	-0.2453118
188	0x3c83e2cc	0.016099356
189	0xbe6f26e3	-0.23354678
190	0xbeb14c34	-0.3462845
191	0xbe59c8d4	-0.21268016
192	0x3d5ff463	0.054676425
193	0xbe3c13d6	-0.18366942
194	0x3d83bc2a	0.06432374
195	0x3bd318f7	0.006442185
196	0xbdb7a11e	-0.089662775
197	0x3d2cb9f1	0.042169515
198	0x3c0f6da2	0.008754166
199	0xbe2bb482	-0.16768077
200	0x38c3523b	9.313641e-05
201	0x3bdabf2d	0.006675622
202	0x3d8171c8	0.0632053
203	0xbcfc2140	-0.030777574
204	0xa467357a	-5.0135437e-17
205	0x99555933	-1.10298555e-23
206	0x3b65d48c	0.0035069315
207	0xbd18065c	-0.03711544
208	0xbe3b2b07	-0.18278132
209	0xb1a6c82e	-4.8539937e-09
210	0x3ce64dbe	0.028113242
211	0x3e16c635	0.14724047
212	0xbb42960d	-0.0029691488
213	0x9c0a2b07	-4.571598e-22
214	0x3da67140	0.081270695
215	0x3ebfc856	0.37457532
216	0xbcd92b39	-0.026509868
217	0xbdaa3e7e	-0.08312701
218	0xbe970791	-0.2949796
219	0xbd13f91c	-0.03612624
220	0x87052e7e	-1.0019471e-34
221	0x3edcf518	0.43155742
222	0x3e012ebd	0.12615485
223	0xba355b35	-0.0006918193
224	0xbd09b004	-0.033615127
225	0x3eb6d246	0.357073
226	0x3cc0031f	0.023438988
227	0x3d67e623	0.05661596
228	0xbd7973a0	-0.060901284
229	0x3c9a320d	0.018822694
230	0x3d233464	0.039844885
231	0xbd6007ff	-0.054695126
232	0xbe373840	-0.17892551
233	0xbc389cfd	-0.011267898
234	0x3b15a07e	0.0022831257
235	0xbb902cb9	-0.0043998626
236	0x3b6a0881	0.0035710635
237	0xbe0ced9a	-0.13762513
238	0x3e4c2c7b	0.19938843
239	0x23dbf1d1	2.384644e-17
240	0x3ae99416	0.0017820622
241	0xbe24190e	-0.16025183
242	0xbd879d6e	-0.06621824
243	0xbe2d18b5	-0.16903956
244	0xbc097d32	-0.008391665
245	0x3e94cf37	0.29064342
246	0x3c668e72	0.014072048
247	0xbe5f17b1	-0.21786381
248	0x35bbe9f7	1.4000678e-06
249	0xb6e1eb6f	-6.7329306e-06
250	0xbb80faeb	-0.0039361618
251	0xbe8d83dd	-0.27639666
252	0xbd51516b	-0.051103037
253	0x36da0104	6.4970245e-06
254	0xbe0a2cda	-0.13493672
255	0xbe331c41	-0.17491247

fc2.bias f4 [100]
0	0x3e48122e	0.19538185
1	0x3fa1182a	1.2585499
2	0xbe3e4555	-0.18581136
3	0xbd82abfd	-0.063804604
4	0xbe54736c	-0.20747155
5	0xbf19e179	-0.6010967
6	0xbc333363	-0.0109375445
7	0x3e04846e	0.12941143
8	0xbdf7cba3	-0.120993875
9	0x3e1153ce	0.14192125
10	0xbdd923d5	-0.106025375
11	0x3f293581	0.66097265
12	0xbde600a0	-0.11230588
13	0xbdec0730	-0.115248084
14	0xbbbb3595	-0.0057131746
15	0x3e934964	0.2876693
16	0x3dfa9fd2	0.122375146
17	0xbd0d88a3	-0.034554135
18	0x3f7dda4e	0.9916123
19	0x3f1d28aa	0.61390173
20	0x3f58cd93	0.8468868
21	0x3eb8607c	0.36011112
22	0x3e1f1e53	0.15538912
23	0xbedd8157	-0.4326274
24	0x3dfb55aa	0.122721985
25	0xbd6949f6	-0.0569553
26	0x3f6bc687	0.92099804
27	0xbeb32ca0	-0.34994984
28	0x3f02d777	0.51110023
29	0xbe06baa9	-0.13157143
30	0x3d0347ea	0.032051004
31	0x3f38b60a	0.7215277
32	0xbe8d0b1f	-0.27547547
33	0x3e73e95f	0.23819493
34	0xbe1a0052	-0.15039185
35	0x3b3ce595	0.0028823365
36	0x3f161afb	0.5863492
37	0xbe9ebe5f	-0.31004617
38	0xbd80755f	-0.06272387
39	0xbe09a9b5	-0.13443644
40	0x3cb88bbb	0.022527566
41	0xbcc0f0a0	-0.023552239
42	0xbdc148d4	-0.09437719
43	0x3e91e003	0.2849122
44	0x3e40f185	0.18842132
45	0xbd974d80	-0.07387829
46	0x3f941994	1.1570306
47	0xbe4e81c5	-0.2016669
48	0xbdd57e27	-0.10424452
49	0xbe6d003e	-0.23144624
50	0x3e9d17c2	0.30682188
51	0x3e24f345	0.16108425
52	0xbeb8e60f	-0.3611302
53	0x3f3349c9	0.7003446
54	0xbe112831	-0.14175488
55	0x3efad470	0.48990202
56	0x3e1836b6	0.1486462
57	0xbdeaff93	-0.11474528
58	0x3e1309cd	0.14359207
59	0xbdffac42	-0.124840274
60	0x3d819e93	0.06329074
61	0x3eef5489	0.46744183
62	0x3d3b2c36	0.04569646
63	0x3d5cc7a6	0.053901337
64	0xbea1924b	-0.31556925
65	0xbe3b088f	-0.18264984
66	0x3e4bea0d	0.19913502
67	0x3de3bbd7	0.11119812
68	0xbe388922	-0.18021062
69	0x3de594f1	0.11210049
70	0x3c8173a0	0.015802205
71	0x3de78cb4	0.11306134
72	0x3d46a64f	0.048498448
73	0x3d54c0b0	0.051941574
74	0xbcc00f57	-0.023444815
75	0x3f1aac6d	0.6041935
76	0x3f1f1c82	0.62152874
77	0x3f1690ce	0.58814704
78	0x3f968f47	1.1762475
79	0xbd4fca97	-0.050730314
80	0x3e9710b0	0.2950492
81	0xbeb4a7cc	-0.3528427
82	0xbd91b83a	-0.071152166
83	0xbe2e6efd	-0.17034526
84	0xbda23689	-0.07920558
85	0xba9f5612	-0.0012156388
86	0x3c0a98a9	0.008459249
87	0x3dfbb7de	0.12290929
88	0xbf10e061	-0.56592375
89	0xbd29b526	-0.041432522
90	0x3ddb4b41	0.10707713
91	0x3f2ed0a3	0.68287104
92	0xbec5ab21	-0.38607123
93	0x3c9c6ef9	0.019095885
94	0x3e085a4a	0.13315693
95	0x3de285c0	0.11060667
96	0x3c537ca6	0.0129081365
97	0x3ebd6af0	0.3699565
98	0xbd81865a	-0.06324454
99	0xbdba825f	-0.091068976

fc3.weight f4 [10, 100]
0	0xbd78bcd3	-0.06072695
1	0x3eb3d31b	0.35121998
2	0xbe2f286e	-0.17105266
3	0x3e4a20f4	0.19739133
4	0x3e0560cb	0.13025205
5	0xbeb26145	-0.34839836
6	0xbe85a3c3	-0.26101503
7	0xbe56afc9	-0.20965494
8	0x3e605fb8	0.21911514
9	0xbdef2416	-0.11676805
10	0xbe9f8be8	-0.31161427
11	0xbe57c06c	-0.21069497
12	0xbd2cc91e	-0.042183988
13	0xbed49bc7	-0.415251
14	0x3ead8deb	0.33897337
15	0x3e88e949	0.26740482
16	0x3e8e78fe	0.27826685
17	0xbd9e2f5b	-0.07723876
18	0xbdbddb41	-0.09270335
19	0xbdbe87bb	-0.09303232
20	0x3e8b2d1c	0.27182853
21	0x3ece5fb6	0.40307397
22	0xbdebf8ce	-0.11522065
23	0xbed38633	-0.41313323
24	0x3de17184	0.110079795
25	0xbd938a94	-0.07204166
26	0xbe34e2c9	-0.17664637
27	0xbc45d132	-0.012073802
28	0x3de07567	0.10959893
29	0xbe4eba19	-0.20188178
30	0x3e346251	0.1761563
31	0x3e7fd912	0.2498515
32	0xbe9605b6	-0.29301232
33	0xbedd5e16	-0.43235844
34	0xbe91b286	-0.28456515
35	0x3e865b53	0.2624155
36	0xbe8d2b04	-0.2757188
37	0x3d1c42b6	0.038149558
38	0x3e33dfbe	0.1756582
39	0xbd3c84cf	-0.046025094
40	0x3e7b5249	0.24543108
41	0x3e6d2b5c	0.23161072
42	0x3cc60d7c	0.024176352
43	0xbea00a74	-0.31257975
44	0xbe357e65	-0.17723997
45	0xbe8c3279	-0.27382258
46	0xb9db16cc	-0.0004178792
47	0x3d57c753	0.052680325
48	0xbf2043d8	-0.6260352
49	0xbcb991d0	-0.022652537
50	0xbf1f9764	-0.6234038
51	0xbe9abe62	-0.30223376
52	0x3d33423f	0.04376435
53	0x3e939bfe	0.2882995
54	0x3da45117	0.08023279
55	0xbe8d4e1a	-0.2759865
56	0x3e916277	0.28395435
57	0x3ef1c2d7	0.47218964
58	0xbea3632d	-0.31911603
59	0x3e03bc61	0.1286483
60	0x3ee0aacd	0.4388031
61	0xbe360fec	-0.17779511
62	0x3dde975d	0.10868714
63	0xbe59f22f	-0.21283792
64	0x3e504b0f	0.20341133
65	0x3db20a80	0.08693409
66	0x3ec89ae0	0.3918066
67	0xbcf80a1a	-0.030278254
68	0x3e259982	0.1617184
69	0xbedb7174	-0.42859995
70	0x3e29d1f6	0.16584
71	0x3e6610a3	0.22467284
72	0xbea1c214	-0.31593382
73	0xbcc587ca	-0.0241126
74	0xbcb336af	-0.021876661
75	0x3e94325d	0.28944674
76	0x3e43c90c	0.19119662
77	0xbe538125	-0.20654733
78	0x3ecc1a30	0.3986373
79	0xbdb00852	-0.08595337
80	0x3e911ccb	0.2834228
81	0xbbb9ea9d	-0.00567372
82	0xbea8eb65	-0.32992092
83	0x3e02d41d	0.12776227
84	0xbe1d0f40	-0.15337849
85	0x3d375560	0.044759154
86	0x3ecf1fd0	0.4045396
87	0x3dcf67c6	0.10127215
88	0x3e71ea69	0.23624577
89	0x3e9a3b5f	0.30123422
90	0xbe72e443	-0.23719887
91	0xbea3c3b6	-0.31985253
92	0xbec8caf0	-0.3921733
93	0x3b18ef03	0.0023335821
94	0xbebf866c	-0.37407243
95	0x3e0b088f	0.13577484
96	0xbe76349e	-0.2404351
97	0xbe8eb751	-0.27874234
98	0x3e633475	0.2218798
99	0xbe0a711f	-0.13519715
100	0x3afe30e4	0.0019393233
101	0xbeb90e9c	-0.3614396
102	0x3d944865	0.07240371
103	0xbe0e0cf2	-0.13872126
104	0xbe7b587d	-0.24545474
105	0x3e77ea65	0.24210508
106	0x3e941cbc	0.28928173
107	0x3e281a5a	0.16416302
108	0x3e5cc9ab	0.21561305
109	0x3e6426c5	0.22280414
110	0x3db7e9ce	0.089801416
111	0xbe21a335	-0.15784915
112	0x3ea3a06c	0.3195833
113	0xbe48af9f	-0.19598244
114	0xbc7198b7	-0.014745883
115	0xbeda5384	-0.42641842
116	0xbe5caa87	-0.21549426
117	0x3e2686fb	0.16262428
118	0x3e741211	0.23835017
119	0xbeba33e6	-0.3636772
120	0x3e6f8ae3	0.23392825
121	0xbe1bd9c0	-0.15219784
122	0xbe491c65	-0.19639738
123	0x3e6f99e0	0.23398542
124	0xbec584b6	-0.38577813
125	0x3ef6a635	0.4817368
126	0xbedeccc6	-0.43515605
127	0x3e025a85	0.12729843
128	0xbe938474	-0.2881199
129	0x3ed34807	0.4126589
130	0xbef7601b	-0.4831551
131	0xbeb3ce90	-0.35118532
132	0x3e9720af	0.29517123
133	0xbe84c6a0	-0.2593279
134	0x3d76a2c7	0.06021383
135	0xbe261ff4	-0.16223127
136	0xbea8c626	-0.32963675
137	0xbd8782b9	-0.0661673
138	0x3e82c649	0.25541905
139	0xbec15dba	-0.3776682
140	0xbebf4d04	-0.37363446
141	0xbcb912ba	-0.022591937
142	0x3e844393	0.25832805
143	0xbee491c5	-0.44642463
144	0x3e39e32c	0.18153065
145	0xbe24a16c	-0.16077203
146	0x3e7c8847	0.2466136
147	0xbe6f2ba5	-0.23356493
148	0x3e3584bf	0.1772642
149	0xbe853451	-0.26016477
150	0xbe39301a	-0.18084756
151	0xbebee7d6	-0.37286252
152	0xbe361174	-0.17780095
153	0x3efd64b2	0.49490887
154	0xbe9c95c1	-0.30583003
155	0x3e197f6c	0.14990014
156	0xbeab53c6	-0.33462352
157	0xbdd80792	-0.10548319
158	0x3d8491d2	0.064731255
159	0xbecbc143	-0.39795884
160	0xbe1a6615	-0.15078004
161	0x3e6efd64	0.23338848
162	0xbd0ed198	-0.034867853
163	0xbe9187c7	-0.28423902
164	0xbe53d258	-0.20685709
165	0xbe1bfe5e	-0.15233752
166	0x3db06d10	0.08614552
167	0xbeef5c40	-0.4675007
168	0xbe38a1ca	-0.18030468
169	0x3e8bec46	0.273287
170	0xbe6b13df	-0.22956799
171	0xbe82db57	-0.25557968
172	0xbd57739c	-0.052600488
173	0x3e8eb674	0.27873576
174	0x3e9e385c	0.30902374
175	0xbea6fc01	-0.3261414
176	0xbef70cd1	-0.48251966
177	0xbe6ca7a5	-0.23110826
178	0x3e3e882e	0.18606636
179	0xbd4d11f0	-0.050065935
180	0xbe75b213	-0.23993711
181	0x3ec002cd	0.37502137
182	0x3eb56d5f	0.35435006
183	0xbeddb03a	-0.43298513
184	0xbe870ef7	-0.26378605
185	0xbd309990	-0.0431152
186	0xbd1d6812	-0.038429327
187	0xbea91a46	-0.33027858
188	0xbe59f95d	-0.21286531
189	0xbe40f81a	-0.18844643
190	0xbe07c9fe	-0.13260648
191	0xbede82fd	-0.4345931
192	0x3ea0bfe5	0.31396404
193	0xbe88d97a	-0.2672842
194	0x3dd6814c	0.1047388
195	0x3e188efc	0.14898294
196	0xbeb31ae2	-0.34981447
197	0x3eb2e868	0.34942937
198	0xbe73e01c	-0.2381596
199	0xbea6ba7c	-0.3256415
200	0xbc9afcad	-0.018919313
201	0x3e22dfac	0.15905637
202	0x3dddf464	0.108376294
203	0x3e821509	0.25406674
204	0xbe83be47	-0.25731108
205	0x3e5e5301	0.21711351
206	0xbecb46ef	-0.39702556
207	0xbea0b25b	-0.31386074
208	0x3e9d29d0	0.30695963
209	0x3c3693fe	0.0111436825
210	0x3e31c0ca	0.173587
211	0xbe1b54d2	-0.15169075
212	0xbea43503	-0.32071695
213	0x3e7a1e67	0.2442566
214	0xbe34e6b2	-0.17666128
215	0xbea75d00	-0.3268814
216	0x3e7729a3	0.24136977
217	0x3dc13591	0.09434045
218	0xbc9a94d4	-0.018869795
219	0xbe9fea32	-0.31233364
220	0xbe100ce4	-0.14067417
221	0xbdc311a6	-0.095248505
222	0xbe470acb	-0.19437711
223	0x3c817dad	0.015806997
224	0x3d1b5407	0.03792193
225	0xbe14eacc	-0.14542693
226	0xbe80ff24	-0.25194657
227	0x3c385110	0.011249796
228	0x3e7fac09	0.2496797
229	0xbd04021b	-0.03222857
230	0xbebbb8d1	-0.3666444
231	0xbe800d1e	-0.25010008
232	0xbee0cd33	-0.43906555
233	0x3e79e541	0.2440386
234	0x3d86c051	0.0657965
235	0xbeb158f4	-0.34638178
236	0x3ccda97c	0.02510523
237	0xbde6c6e0	-0.11268401
238	0x3e7bd334	0.24592286
239	0x3e03aae2	0.12858155
240	0x3d161d68	0.036649138
241	0x3e48d138	0.1961106
242	0x3e376c04	0.17912298
243	0xbde51d0c	-0.11187181
244	0xbdb3b477	-0.08774655
245	0xbb8f9274	-0.0043814722
246	0xbf05534a	-0.52080214
247	0xbe0e3f30	-0.13891292
248	0x3d858f0a	0.06521423
249	0xbea3d79a	-0.32000428
250	0xbeca27ca	-0.39483482
251	0xbece678d	-0.40313378
252	0x3ea5cf29	0.32384613
253	0xbe6e3b3c	-0.23264784
254	0x3e272fc9	0.16326822
255	0x3e8c79d2	0.27436692

fc3.bias f4 [10]
0	0xbefb35aa	-0.4906438
1	0xbf062f9b	-0.5241639
2	0x3ed9426e	0.42433494
3	0xbddc85f5	-0.10767738
4	0x3d4f347c	0.050587162
5	0x3da3b91d	0.07994292
6	0xbee63178	-0.44959617
7	0x3c642983	0.013925913
8	0x3ef3fa0e	0.47651714
9	0x3e935898	0.2877853
