Arafat_WS/MLP-100/saved/trained_mlp100-98.34p.pt (torch, 360783 bytes, 6 tensors)

fc1.weight f4 [100, 784]
0	0x8001285c	-1.06314e-40
1	0x00012c68	1.07765e-40
2	0x80015684	-1.22871e-40
3	0x000106d9	9.4292e-41
4	0x80010f78	-9.7385e-41
5	0x000132ac	1.10013e-40
6	0x80004d2a	-2.7681e-41
7	0x00007004	4.0184e-41
8	0x8000d41e	-7.6093e-41
9	0x800127ec	-1.06157e-40
10	0x8000fb22	-9.009e-41
11	0x8000ee71	-8.5537e-41
12	0x80008bfd	-5.0218e-41
13	0x8000cfc8	-7.4538e-41
14	0x800117af	-1.00332e-40
15	0x000121d0	1.03965e-40
16	0x8000abdc	-6.1652e-41
17	0x000101e5	9.2515e-41
18	0x8000d5cd	-7.6697e-41
19	0x80011b15	-1.0155e-40
20	0x000095e1	5.3766e-41
21	0x80012bd1	-1.07554e-40
22	0x000026bc	1.3895e-41
23	0x00011405	9.9017e-41
24	0x800083e6	-4.7316e-41
25	0x800137fa	-1.11916e-40
26	0x00015daf	1.25443e-40
27	0x000159da	1.24068e-40
28	0x80008f34	-5.1372e-41
29	0x80009595	-5.366e-41
30	0x800019e6	-9.29e-42
31	0x00014ff8	1.20523e-40
32	0x0000de2f	7.9704e-41
33	0x0000d127	7.503e-41
34	0x8000c58f	-7.087e-41
35	0x000063e0	3.5828e-41
36	0x8000f182	-8.6637e-41
37	0x0000d841	7.7577e-41
38	0x8000cd45	-7.3637e-41
39	0x8000de19	-7.9674e-41
40	0x80009132	-5.2086e-41
41	0x80012819	-1.0622e-40
42	0x8000f0e6	-8.6418e-41
43	0x8000c383	-7.0136e-41
44	0x8000bbe8	-6.7408e-41
45	0x0000eb5c	8.4431e-41
46	0x80005a2c	-3.2348e-41
47	0x0000f253	8.693e-41
48	0x3a4c1ad9	0.0007785983
49	0x3aaa0729	0.0012972105
50	0x390dcbee	0.00013522778
51	0x8000c622	-7.1077e-41
52	0x8000b8c2	-6.6279e-41
53	0x00009068	5.1803e-41
54	0x80003f21	-2.2646e-41
55	0x80003ec7	-2.252e-41
56	0x8000af28	-6.2834e-41
57	0x8000ef4d	-8.5845e-41
58	0x80002b80	-1.5605e-41
59	0x8000e148	-8.0816e-41
60	0x8000f3ce	-8.746e-41
61	0x80002178	-1.2006e-41
62	0x8000e965	-8.3726e-41
63	0x8000e586	-8.2337e-41
64	0x0000ef7a	8.5908e-41
65	0xad093804	-7.799986e-12
66	0x3aafeeb8	0.0013422584
67	0x3abd6886	0.0014450706
68	0xbbb19c93	-0.0054202764
69	0xbc4d6905	-0.012537246
70	0xbc73b764	-0.014875267
71	0xbc749788	-0.014928706
72	0xbca41566	-0.020029735
73	0xbc8ad9b6	-0.016949516
74	0xbbf4b6fb	-0.007468102
75	0xbb38032b	-0.002807806
76	0xba2eab8b	-0.0006663135
77	0x3c147627	0.009061373
78	0x3c683b49	0.014174291
79	0x3c10c26b	0.008835415
80	0x0f330ad9	8.8274706e-30
81	0x800136ee	-1.1154e-40
82	0x80012a21	-1.06949e-40
83	0x80009559	-5.3576e-41
84	0x000091bf	5.2284e-41
85	0x0000f21c	8.6852e-41
86	0x3c246471	0.010033713
87	0x3bb0c80f	0.0053949426
88	0x031011f8	4.2338424e-37
89	0x3575f9bf	9.163304e-07
90	0xb4b7f672	-3.426572e-07
91	0xba0f110e	-0.00054575584
92	0x3b0fbf69	0.0021934158
93	0x3cab67fd	0.020923609
94	0xbb83d03f	-0.0040226276
95	0xbd12b0c7	-0.03581312
96	0x3cf7b595	0.030237952
97	0xbd2f3722	-0.042777188
98	0xbd28ce4b	-0.04121236
99	0xbd1cc03b	-0.038269263
100	0xbcf75093	-0.030189788
101	0x3c938cab	0.018011412
102	0x3e115e69	0.14196171
103	0x3db3f788	0.08787447
104	0x3da6d46a	0.081459835
105	0x3d081c67	0.03323021
106	0x3cad6a8e	0.021168973
107	0x3bc187ca	0.00590608
108	0xbb531f36	-0.0032214648
109	0xbaa05e19	-0.0012235075
110	0xbb4b9f1b	-0.0031070176
111	0x0000f728	8.8663e-41
112	0x00011d43	1.02333e-40
113	0xa522e231	-1.4127897e-16
114	0x3c417643	0.011807981
115	0x3c3dd588	0.011586554
116	0x3c07f9d7	0.008299313
117	0x3c7ce28c	0.015434872
118	0x3c26ad92	0.010173218
119	0x3d1896fa	0.037253357
120	0x3d0337bd	0.032035578
121	0xbca2f7b9	-0.019893514
122	0xb90473c5	-0.00012631628
123	0x3c0c765e	0.008573143
124	0xbc29cde3	-0.010364029
125	0xbd341452	-0.04396469
126	0xbd9cd1b0	-0.07657182
127	0x3ce6fa94	0.028195657
128	0x3e362a7e	0.17789647
129	0xbd586bb5	-0.052837092
130	0x3d4fe29e	0.05075323
131	0x3e19688b	0.14981286
132	0x3d5a0919	0.053231332
133	0xbca120a2	-0.01966888
134	0x3c2a6288	0.010399468
135	0xbcbe0f55	-0.02320067
136	0xbc896381	-0.01677108
137	0xbc603ca8	-0.013686337
138	0xbb25bdf4	-0.0025290223
139	0xbb048ec1	-0.002022669
140	0x80009094	-5.1865e-41
141	0x0000b5d0	6.5222e-41
142	0x3c050338	0.008118443
143	0x3b362a87	0.0027796344
144	0x3cccb44f	0.024988322
145	0x3dd07fe9	0.10180647
146	0x3d8ac051	0.06774963
147	0x3cb5d106	0.022194397
148	0xbd94ced9	-0.072660156
149	0xbdb9f150	-0.0907923
150	0x3c7c5d7e	0.01540315
151	0xbdfdf8dd	-0.124009825
152	0xbe2c23c1	-0.16810514
153	0xbdb904fe	-0.09034155
154	0xbc8e300d	-0.017356897
155	0x3d937570	0.07200134
156	0x3d232dc7	0.03983858
157	0xbc3dc2da	-0.011582101
158	0xbd4ac70e	-0.04950624
159	0x3d89f23f	0.06735658
160	0xbb011cbc	-0.0019700965
161	0xbd99d689	-0.075116225
162	0xbbbff0e4	-0.005857574
163	0x3d4ef6c0	0.050528288
164	0xbc010708	-0.007875212
165	0xbc9c2152	-0.019058857
166	0xbc0e62be	-0.008690534
167	0xbb3b3dbd	-0.0028570734
168	0x8000875a	-4.8555e-41
169	0x1424b46b	8.315465e-27
170	0x3af71fbd	0.0018854063
171	0x3c6aa9b5	0.014322688
172	0x3d0b3fc6	0.033996366
173	0x3d78c048	0.06073025
174	0x3cc27e76	0.023741942
175	0x3d1216f5	0.035666425
176	0xbc9c40c4	-0.019073851
177	0x3ce4237e	0.027848955
178	0x3d9b1e52	0.075741425
179	0x3cf8963a	0.030345071
180	0xbe0f69fd	-0.14005275
181	0x3bb50ebb	0.0055254376
182	0xbc1fae9b	-0.009746219
183	0x3b6ffdbd	0.0036619746
184	0xbd368c58	-0.044567436
185	0xbcc8ac68	-0.024496272
186	0xbd638e1f	-0.05555546
187	0xbd8924b5	-0.066964544
188	0x3cd0b0dd	0.02547496
189	0x3bccbbea	0.006247987
190	0xbd8c12fb	-0.06839558
191	0xbd8403b2	-0.06446017
192	0xbbab1d73	-0.0052220165
193	0xbcd53987	-0.026028408
194	0xbc1b2af6	-0.009470692
195	0xbbb20607	-0.0054328474
196	0x80008e80	-5.112e-41
197	0x38c02627	9.16238e-05
198	0x3b021635	0.0019849662
199	0x3bbfef8a	0.0058574127
200	0x3d4d75b7	0.05016109
201	0xbb8a0309	-0.0042117876
202	0xbca8ffa2	-0.020629708
203	0x3cb7531a	0.022378493
204	0xbda6cb93	-0.081442975
205	0x3d3b4176	0.045716725
206	0x3d045b4f	0.03231364
207	0xbb69433f	-0.003559306
208	0xbd255104	-0.040360466
209	0xbcce7136	-0.025200468
210	0x3e3d94ea	0.18513837
211	0x3ca21243	0.019784098
212	0x3d78b52c	0.060719654
213	0x3e316b5b	0.17326109
214	0xbb85f5bd	-0.004088132
215	0x3e4becb1	0.1991451
216	0x3e32e3a4	0.1746965
217	0x3d0d5efa	0.034514405
218	0xbda1890b	-0.07887467
219	0xbe1c7737	-0.15279852
220	0xbde38348	-0.11109024
221	0xbcbb917c	-0.02289652
222	0xbc08ae0e	-0.008342279
223	0xbb234bc8	-0.0024916995
224	0x00010d35	9.6573e-41
225	0x39e8d310	0.00044407742
226	0x3a02cb2a	0.000498938
227	0x3cc64146	0.024201047
228	0x3d1d6835	0.038429458
229	0xbd8217e5	-0.06352214
230	0xbe0dcd95	-0.13847955
231	0xbd89bcd2	-0.06725468
232	0xbd752beb	-0.059856337
233	0x3df30b1f	0.118673556
234	0x3d7255ca	0.059163846
235	0x3e045905	0.12924583
236	0x3e05e94f	0.13077281
237	0x3d6885ac	0.056768104
238	0x3d35195d	0.04421364
239	0x3c517379	0.0127838785
240	0x3dc7cf12	0.097562924
241	0x3de99fb9	0.11407418
242	0x3cbb7089	0.02288081
243	0x3e46443c	0.19361967
244	0x3dccf2af	0.10007226
245	0x3df06047	0.117371134
246	0x3a91aa56	0.0011113386
247	0xbe3d58b8	-0.18490875
248	0xbe08f135	-0.13373263
249	0xbbd95107	-0.0066319737
250	0xbb54d47b	-0.003247528
251	0x0000ec68	8.4807e-41
252	0x00008f0e	5.1318e-41
253	0x3abd3436	0.0014435116
254	0x3c5be6d8	0.013421737
255	0x3cdf0153	0.027222311

fc1.bias f4 [100]
0	0xbec5f2bf	-0.38661763
1	0xbe80662f	-0.2507796
2	0xbecc8ae1	-0.39949706
3	0xbf54b165	-0.8308318
4	0x3ea5dbea	0.32394344
5	0x9acfbb17	-8.5915453e-23
6	0xa587b497	-2.354114e-16
7	0xbd9c122c	-0.076206535
8	0xbeb4246f	-0.35184047
9	0xbe312081	-0.17297556
10	0x3e43db96	0.19126734
11	0xbd97877e	-0.0739889
12	0xbe0f4c04	-0.13993841
13	0xbb84dcee	-0.004054657
14	0xbe1ebff5	-0.15502913
15	0xbf4c8c10	-0.7990122
16	0x3e60b121	0.2194257
17	0xbee742d2	-0.45168167
18	0x3ba3e56f	0.005001716
19	0xbdc51c70	-0.09624565
20	0x3f259e60	0.64694786
21	0x3e554836	0.20828328
22	0x3e8b3efc	0.2719649
23	0x3da0bbc0	0.078483105
24	0xbe5fbd0e	-0.21849462
25	0xbed18b2c	-0.40926492
26	0xbd518e97	-0.051161375
27	0xbcd1e2bb	-0.025620809
28	0xbe86ae4a	-0.26304847
29	0x3daacf1e	0.08340286
30	0x3c9a2d66	0.018820476
31	0xba2b085b	-0.00065243774
32	0xbd42f0a6	-0.04759278
33	0x9fd36a96	-8.953831e-20
34	0x3db163fe	0.0866165
35	0x3cc184fe	0.023622986
36	0xbe6c2bd9	-0.23063602
37	0xbe598f6a	-0.21246114
38	0xbe92157e	-0.28532022
39	0xbf752c74	-0.95770955
40	0x00004dd6	2.7922e-41
41	0x3e8c3857	0.27386734
42	0x3eea2687	0.4573252
43	0xbdde6150	-0.10858405
44	0xbefb4d85	-0.4908258
45	0xbeaf93ba	-0.34292394
46	0xbeda1369	-0.42592934
47	0xbec16528	-0.3777249
48	0xbeb2a974	-0.34894907
49	0xbeaf0afa	-0.34188062
50	0xbe755ce2	-0.23961213
51	0xbf062b00	-0.5240936
52	0xbd9c1e58	-0.07622975
53	0xbd20c438	-0.03924963
54	0xbe5975ba	-0.21236315
55	0xbecb81fc	-0.39747608
56	0x3e688400	0.22706604
57	0xbde9aefb	-0.11410328
58	0x3ece8c21	0.40341285
59	0x3d033547	0.03203323
60	0xbe127855	-0.14303716
61	0xbda3e280	-0.08002186
62	0x3e581b07	0.2110406
63	0x3be2d905	0.0069228434
64	0x3e869db3	0.2629219
65	0x3d1c2e49	0.03813008
66	0x3e1e6536	0.15468296
67	0xbd26e8c9	-0.040749345
68	0x3e7b2746	0.245267
69	0xbe7c1527	-0.24617444
70	0x92855a71	-8.415776e-28
71	0xbc38cf85	-0.011279945
72	0xbd31856f	-0.043340143
73	0xbe142982	-0.14468959
74	0x3d551bf9	0.05202863
75	0xbd2b159c	-0.041768655
76	0xbe0d7915	-0.1381572
77	0x3bfa52bc	0.0076392572
78	0xbe550df6	-0.20806107
79	0xbe94aba2	-0.29037195
80	0x3ebc656a	0.36796123
81	0x3b0ad234	0.002118242
82	0x3d89044b	0.06690272
83	0xbdada16b	-0.08478054
84	0x3b86c17a	0.0041124197
85	0xbbc8f9b9	-0.006133285
86	0xbdb08f6b	-0.08621105
87	0xbed98e91	-0.42491582
88	0x3bca6113	0.006176123
89	0x3e64dfef	0.22351049
90	0xbe3146db	-0.17312185
91	0x3dd7adbd	0.10531185
92	0x3d0df731	0.03465957
93	0xbd5b2c6d	-0.053509165
94	0xbd9702ef	-0.073736064
95	0x3e80437c	0.25051486
96	0xbe11ae33	-0.14226608
97	0xbc98d07b	-0.018654099
98	0x3e835213	0.25648555
99	0xbd148555	-0.036259968

fc2.weight f4 [100, 100]
0	0x3e5368f7	0.2064551
1	0xbdb59763	-0.08866765
2	0xbe931c66	-0.28732604
3	0x3cb79a92	0.022412572
4	0x3dddd1ee	0.108310565
5	0xa85dc947	-1.23116095e-14
6	0x800071db	-4.0844e-41
7	0x3e012b32	0.12614134
8	0xbe43c32c	-0.19117421
9	0x3c4afedb	0.012389864
10	0x3e222594	0.15834647
11	0x3df01528	0.11722785
12	0x3e00e17a	0.12586012
13	0x3c490464	0.012269113
14	0x3e262d32	0.16228178
15	0xbd8e4a28	-0.06947738
16	0x3cd681df	0.026184974
17	0x3b994121	0.0046769534
18	0x3dcb7c4f	0.09935819
19	0xbdd2b9db	-0.10289355
20	0x3e326408	0.17420971
21	0xba96d606	-0.0011507876
22	0xbcf1ce6a	-0.029517371
23	0xbe04c54f	-0.12965892
24	0x3ecd8ad5	0.40144983
25	0x3dd2e469	0.10297472
26	0x3d6e3650	0.058157265
27	0x3c68fa8d	0.014219892
28	0xbd430264	-0.0476097
29	0x3e69bf37	0.22826849
30	0x3cce71b2	0.025200699
31	0x3b3c3223	0.0028716407
32	0x3e3b9943	0.18320183
33	0x1b055f2f	1.1032258e-22
34	0x3d538af4	0.051646188
35	0xbccecee9	-0.025245147
36	0xbdae891d	-0.08522246
37	0x3d8d3646	0.068951175
38	0x3e0a154b	0.13484685
39	0x3dd02bbd	0.101645924
40	0x00004a1f	2.659e-41
41	0x3b9356ed	0.0044964463
42	0xbcf3f790	-0.029781133
43	0xbc024580	-0.00795114
44	0x3dae651e	0.0851538
45	0xbde06774	-0.10957232
46	0xbdc0b08c	-0.09408674
47	0x3d6b6a5e	0.057474487
48	0x3d857ce2	0.0651796
49	0x3da0e45c	0.07856056
50	0x3ca4161c	0.020030074
51	0x3d27edd7	0.040998306
52	0x3df4659d	0.11933444
53	0x3c5eb30d	0.013592494
54	0x3d6122fb	0.054965
55	0xbdf65890	-0.12028611
56	0x3dcaf0b8	0.09909195
57	0x3d8af5a2	0.06785132
58	0x3d4749fe	0.04865455
59	0xbde86c81	-0.113488205
60	0xbe102b75	-0.14079078
61	0xbdd6fc45	-0.10497335
62	0x3e03126c	0.12799996
63	0xbd971a29	-0.073780365
64	0x3d00c1b5	0.031434733
65	0xbdd1b081	-0.102387436
66	0xbe2b854a	-0.16750064
67	0x3e056ce4	0.1302982
68	0x3d9456bc	0.07243106
69	0xbe46b3aa	-0.19404474
70	0x3576942d	9.1857765e-07
71	0x3deb950a	0.11503036
72	0xbd8fc204	-0.070194274
73	0x3c6b0a8f	0.014345779
74	0x3e1bcebd	0.15215583
75	0x3d1af28b	0.037828963
76	0xbe9020ae	-0.28149933
77	0xbe004845	-0.12527569
78	0xbda0f250	-0.078587174
79	0x3ea8c2e8	0.32961202
80	0x3e0aa1f4	0.13538343
81	0xbe002ba8	-0.12516654
82	0x3e886794	0.26641524
83	0xbe683bea	-0.22679105
84	0x3ea557a2	0.3229342
85	0x3e3707b1	0.17874028
86	0xbb83382b	-0.0040044985
87	0xbdf316ae	-0.1186956
88	0xbd6e7aa4	-0.058222428
89	0x3d0bdec8	0.034148008
90	0xbe747044	-0.23870951
91	0x3d0c8bee	0.034313135
92	0xbe1d9be5	-0.153915
93	0x3d36d141	0.044633154
94	0x3e906daa	0.28208667
95	0x3f0e7d0f	0.55659574
96	0xbd5f1ace	-0.054468922
97	0x3d195ab7	0.037440028
98	0x3e300ace	0.17191622
99	0xbdc8237a	-0.097723916
100	0x3e379613	0.17928343
101	0xbe3c009f	-0.18359612
102	0x3e61a816	0.22036776
103	0xbda44194	-0.080203205
104	0xbe16e1a2	-0.1473451
105	0x15e54edc	9.261678e-26
106	0x000083c3	4.7267e-41
107	0x3dad2e7c	0.08456132
108	0x3d11885d	0.035530437
109	0xbd7a9d44	-0.061185136
110	0x3e551bc9	0.2081138
111	0x3d1914e3	0.037373435
112	0xbc5a0cc8	-0.013308711
113	0xbbc91ec5	-0.006137701
114	0x3ea860e8	0.32886434
115	0x3d63c897	0.05561122
116	0xbc27868f	-0.010224952
117	0x3de32763	0.11091497
118	0xbe21cd76	-0.15801033
119	0x3de8d0bc	0.11367938
120	0x3d92f3c8	0.07175404
121	0x3d2b238f	0.04178196
122	0x3db0ec61	0.08638836
123	0x3e63b5d2	0.22237328
124	0xbe95bfe1	-0.29247954
125	0x3d6b84a1	0.05749953
126	0x3d139569	0.03603116
127	0x39af6503	0.0003345386
128	0xbce41abd	-0.027844781
129	0xbd0170bd	-0.031601656
130	0x3cd6175e	0.02613419
131	0x36960246	4.470613e-06
132	0xbe449f03	-0.19201283
133	0x25af0045	3.0357843e-16
134	0xbbaf6020	-0.005352035
135	0x3cf3211a	0.02967887
136	0xbe980acb	-0.29695734
137	0xbe002738	-0.12514961
138	0xbe146953	-0.14493303
139	0x3c873d6f	0.016508786
140	0x968a27a1	-2.2320112e-25
141	0xbd6932fb	-0.056933384
142	0xbd79a367	-0.06094685
143	0x3ed18982	0.40925223
144	0xbdbb1e70	-0.09136665
145	0x3ed62bdb	0.41830334
146	0x3d61f190	0.055162013
147	0xbde2ce0f	-0.11074459
148	0x3d2649ac	0.040597603
149	0xbe7e96f0	-0.24862266
150	0xbe06547c	-0.13118166
151	0xbea36fdb	-0.31921276
152	0x3df733a4	0.120703965
153	0x3dc6cdce	0.09707223
154	0x3d587708	0.052847892
155	0x3d934e74	0.07192698
156	0x3decdd77	0.115656786
157	0xbe83dbeb	-0.25753722
158	0x3e2b33e0	0.16719007
159	0xbdc4b56b	-0.09604915
160	0xbc952b5a	-0.018209148
161	0xbd3a4a5f	-0.045481082
162	0xbe14e43e	-0.14540192
163	0x3e7998da	0.24374714
164	0xbc808157	-0.015686674
165	0xbc5ecd84	-0.013598803
166	0x3c15d126	0.009144103
167	0x3c879901	0.01655245
168	0xbdbb4ae9	-0.09145147
169	0x3e135d4c	0.14391059
170	0xb2ab71b9	-1.9958735e-08
171	0xbd87dee1	-0.06634308
172	0xbc179e01	-0.00925398
173	0x3d638556	0.05554708
174	0xbe106e09	-0.14104475
175	0x3cd54c95	0.026037494
176	0xbe96df47	-0.29467222
177	0xbd33879f	-0.04383051
178	0xbe00d0e0	-0.1257968
179	0xbe3dfc5d	-0.185533
180	0xbc8d9163	-0.01728124
181	0x3d226e2b	0.039655846
182	0xbdcbb11f	-0.099458925
183	0xbdccb73a	-0.09995885
184	0xbdf2cd26	-0.11855535
185	0xbe902f90	-0.28161287
186	0xbdfc38fd	-0.12315557
187	0x3dcb76dc	0.0993478
188	0x3e039ced	0.12852831
189	0xbc96f0b6	-0.018425327
190	0x3e8d2ff8	0.2757566
191	0x3e90e874	0.28302348
192	0xbdf4e850	-0.119583726
193	0x3d160412	0.036624976
194	0xbe63917d	-0.22223468
195	0xbd6b0b60	-0.057383895
196	0xbdaa43fa	-0.08313747
197	0xbca15513	-0.019693887
198	0xbcf24b3c	-0.02957689
199	0xbc8031df	-0.01564878
200	0xbe629e35	-0.22130664
201	0x3dc48a6a	0.09596713
202	0x3de739f7	0.11290353
203	0x3ec0925b	0.3761166
204	0x3cde3118	0.02712302
205	0x2d66de75	1.3123382e-11
206	0x80004bec	-2.7236e-41
207	0xbe20d057	-0.15704475
208	0x3eb61999	0.35566404
209	0xbddd401f	-0.10803246
210	0xbdb10d93	-0.08645167
211	0xbe20623c	-0.15662473
212	0xbd2a5d85	-0.041593093
213	0x3cc48431	0.023988815
214	0xbe2c9102	-0.16852191
215	0xbe115862	-0.14193872
216	0xbdf95481	-0.12174321
217	0xbc58fa93	-0.013243335
218	0x3e1f2964	0.15543133
219	0xbe09ed9d	-0.13469549
220	0xbe531bb5	-0.20616038
221	0x3d915fd4	0.07098356
222	0x3dd3ff22	0.10351397
223	0xbe5e7440	-0.21724033
224	0xbe4ae949	-0.19815554
225	0x3e22e184	0.1590634
226	0x3cec50e6	0.02884717
227	0x3d45b424	0.0482675
228	0xbae52b2e	-0.0017484182
229	0x3e7922f4	0.2432974
230	0xbdbf8422	-0.09351374
231	0x3a227060	0.0006196555
232	0x3cb00eee	0.021491494
233	0x9facd097	-7.3189916e-20
234	0xbe87a954	-0.26496375
235	0xbc66136b	-0.014042716
236	0x3e0271dd	0.12738748
237	0x3dd9d2f6	0.10635941
238	0x3c2e0031	0.010620163
239	0x3eb6064b	0.35551676
240	0x1003a837	2.5964783e-29
241	0x3dce5a09	0.100757666
242	0x3e152de5	0.14568289
243	0xbe968458	-0.29397845
244	0x3e59e956	0.21280417
245	0xbe3f27d4	-0.18667537
246	0xbe046e1c	-0.12932628
247	0x3cf07a72	0.029355261
248	0xbe5ccd62	-0.21562722
249	0x3e35cc34	0.17753679
250	0xbea2b5ec	-0.3177942
251	0x3e6c7c35	0.23094256
252	0xbd2dcff2	-0.04243464
253	0xbc470325	-0.012146746
254	0x3c7b9d25	0.01535729
255	0xbd9836fb	-0.07432362

fc2.bias f4 [100]
0	0xbebd65fd	-0.36991873
1	0xbdf58e8d	-0.1199008
2	0x3d4363ab	0.047702473
3	0x3e96f320	0.29482365
4	0xbb5cc601	-0.0033687355
5	0x3c432c66	0.011912441
6	0xbe75ac81	-0.23991586
7	0x3e9b50ba	0.30335027
8	0x3d15a7db	0.036537033
9	0xbebc6ae6	-0.36800307
10	0x3ea394d0	0.31949472
11	0xbd6448b7	-0.05573341
12	0x3e986f8d	0.29772606
13	0x3da8a04a	0.08233698
14	0x3d3f8b3d	0.046763647
15	0x3e7a0c4e	0.24418756
16	0xbd0f3fae	-0.03497284
17	0x3cfbdf1f	0.03074604
18	0x3ee437a8	0.44573712
19	0xbe29c68c	-0.16579646
20	0x3e96ba5d	0.2943906
21	0xbc60e7c1	-0.013727129
22	0xbe998c87	-0.29990026
23	0xbddd7c54	-0.10814729
24	0xbdabc2a0	-0.08386731
25	0x3d8268c5	0.063676395
26	0x3f64f812	0.89441025
27	0x3efaaa5c	0.489581
28	0x3e3b44f3	0.18288021
29	0x3d36b337	0.044604506
30	0xbde2c201	-0.110721596
31	0x3e952946	0.29133052
32	0x3e801d78	0.25022483
33	0xbe2b8eb3	-0.16753654
34	0x3f1906fb	0.59776276
35	0xbed5857b	-0.417034
36	0xbd3da8a4	-0.046303406
37	0xbdd4cc41	-0.10390521
38	0xbd618a07	-0.055063274
39	0x3e232e66	0.15935668
40	0x3f5955c1	0.84896475
41	0x3e250ec2	0.16118911
42	0x3ed424be	0.41434282
43	0xbe3f1247	-0.18659316
44	0xbe80093c	-0.25007045
45	0xbe4912e9	-0.1963612
46	0xbcd042ee	-0.02542254
47	0x3e6269ba	0.22110644
48	0x3ef835b3	0.4847847
49	0x3f217f2f	0.6308469
50	0xbe18a738	-0.14907539
51	0x3ee15b13	0.44014797
52	0xbe9bc132	-0.30420834
53	0x3f98d2d2	1.1939337
54	0xbe9f277f	-0.3108482
55	0xbd7decd9	-0.061993454
56	0x3f4f43ae	0.80962646
57	0xbe2d8b56	-0.16947684
58	0xbecc9ff4	-0.39965785
59	0x3efd6c63	0.49496755
60	0xbd88f44d	-0.06687222
61	0x3f902df4	1.1264024
62	0xba914ff8	-0.0011086455
63	0x3ec3c11a	0.38233262
64	0xbebd3da1	-0.36961082
65	0xbd33180a	-0.043724097
66	0x3dcacf6a	0.09902842
67	0xbe6172c0	-0.2201643
68	0x3ea23afa	0.3168562
69	0x3e7c986d	0.24667521
70	0x3db7907d	0.08963106
71	0x3e7bd710	0.24593759
72	0x3eadb4c5	0.3392698
73	0x3e789864	0.24276882
74	0x3dd58c23	0.104271196
75	0x3ecb74ab	0.39737448
76	0xbe112467	-0.14174043
77	0x3f563ea9	0.8368936
78	0xbdca1d20	-0.098688364
79	0xbe910fc1	-0.28332332
80	0x3e8e45c3	0.277876
81	0x3e31dd11	0.17369486
82	0x3dec4c58	0.11537999
83	0xbe440d4e	-0.191457
84	0xbe970f9f	-0.29504105
85	0xbf0701f7	-0.52737373
86	0xbded3db0	-0.115840316
87	0xbe8e68c1	-0.27814296
88	0x3f811f1d	1.008762
89	0xbe29805c	-0.16552871
90	0xbdd36fb9	-0.10324044
91	0x3f0fb4ea	0.5613543
92	0x3dd0eba6	0.10201196
93	0xbda43c69	-0.08019335
94	0xbd2854ca	-0.041096486
95	0xbdffba4c	-0.12486705
96	0x3ddf84a0	0.10913968
97	0x3dafb223	0.08578899
98	0xbd143bf6	-0.036189996
99	0xbe8b156b	-0.27164778

fc3.weight f4 [10, 100]
0	0xbe58079c	-0.21096653
1	0xbe060fc5	-0.13091953
2	0xbe3c9368	-0.18415606
3	0xbe6e98b1	-0.23300435
4	0xbe7c56e1	-0.24642517
5	0x3ea7bf42	0.32763106
6	0xbc54f28c	-0.012997281
7	0xbeb96455	-0.3620936
8	0x3c275907	0.010214097
9	0xbe8ab9ad	-0.27094784
10	0x3e95ff3c	0.2929629
11	0x3eab0d83	0.33408746
12	0x3e6c7450	0.23091245
13	0xbe952776	-0.2913167
14	0x3e743eba	0.23852053
15	0xbe9b6d84	-0.3035699
16	0xbd47099a	-0.04859314
17	0xbe887b77	-0.26656696
18	0xbe8f4634	-0.27983248
19	0x3dd40802	0.1035309
20	0xbed5af72	-0.41735417
21	0x3e60fc5d	0.21971269
22	0x3e3ac218	0.18238103
23	0xbe4ce96f	-0.20010923
24	0xbe5e9fc2	-0.2174063
25	0x3c08a824	0.008340869
26	0xbdfb8aed	-0.12282357
27	0xbeac16ff	-0.33611295
28	0x3df3e04a	0.11908014
29	0x3e85f928	0.26166654
30	0xbd1ec3fa	-0.038761117
31	0xbe57b7e4	-0.21066242
32	0x3e441320	0.1914792
33	0xbcb25f5e	-0.02177399
34	0x3e5186d8	0.20461595
35	0x3e1b9cf8	0.15196598
36	0xbd4633e1	-0.04838932
37	0xbeb5dead	-0.3552145
38	0x3e8fd0e9	0.28089073
39	0x3eab630a	0.33473998
40	0x3e8d8e95	0.27647844
41	0xbe8fadd8	-0.2806232
42	0xbb802fd8	-0.0039119534
43	0xbd5383e3	-0.05163945
44	0x3e03acf1	0.1285894
45	0x3dc4364c	0.09580669
46	0x3e11d30a	0.14240661
47	0xbeb108a2	-0.345769
48	0xbe8a94e3	-0.27066717
49	0x3eba641c	0.36404502
50	0x3c9c0b19	0.01904826
51	0xbe8a506f	-0.2701449
52	0xbe8bc956	-0.27302045
53	0x3e0865cc	0.13320082
54	0xbeb699fd	-0.3566436
55	0xbd2221d0	-0.039583027
56	0x3d8f4e11	0.06997312
57	0xbdd1b0de	-0.10238813
58	0xbeac2542	-0.33622175
59	0x3d8e4227	0.06946211
60	0xbe8df8ae	-0.2772879
61	0xbd6b34d4	-0.057423428
62	0x3e22028c	0.15821284
63	0x3e92fcb3	0.2870842
64	0xbec6c117	-0.3881919
65	0xbe92214f	-0.28541037
66	0xbe590284	-0.21192366
67	0xbe58a3b4	-0.21156198
68	0xbe11dc9a	-0.14244309
69	0xbdc56af3	-0.096395396
70	0x3e14a2de	0.14515254
71	0xbe890713	-0.2676321
72	0x3f08d2d3	0.5344669
73	0xbe920bf7	-0.28524753
74	0x3e15a4fe	0.14613721
75	0xbe094623	-0.13405661
76	0x3e868cc0	0.2627926
77	0x3b07bfe0	0.0020713732
78	0xbdb62a4b	-0.088947855
79	0xbea0178c	-0.31267965
80	0xbe4dbcfe	-0.20091626
81	0x3e7614be	0.2403135
82	0xbe5314ce	-0.20613405
83	0xbe47d483	-0.1951466
84	0xbed09614	-0.407395
85	0x3e608223	0.21924643
86	0x3e42b598	0.19014585
87	0xbe6836c2	-0.22677138
88	0xbd2ff9c6	-0.042962812
89	0xbe2e8abf	-0.17045115
90	0x3ba0c09a	0.0049057724
91	0xbe2012e5	-0.15632208
92	0xbe6df351	-0.23237349
93	0xbe9e877a	-0.30962735
94	0x3d8c3177	0.06845372
95	0xbda0b307	-0.07846647
96	0xbe2bd4cf	-0.16780399
97	0xbe99851e	-0.29984373
98	0xbdef33eb	-0.116798244
99	0x3e3fc46e	0.18727276
100	0xbddfed54	-0.109339386
101	0x3eb407d5	0.35162225
102	0xbe1bc1c9	-0.15210642
103	0xbdf6927f	-0.12039661
104	0xbe3700c3	-0.17871384
105	0xbe177c2e	-0.14793465
106	0xbe82d8a1	-0.255559
107	0xbc0d32fb	-0.008618112
108	0xbdaf0017	-0.08544939
109	0x3e8e1a26	0.27754325
110	0xbeb02ecb	-0.344107
111	0x3eb5b653	0.35490665
112	0xbe98b4b0	-0.29825354
113	0x3eabf7ab	0.33587393
114	0xbd0d9e11	-0.034574572
115	0x3e5efce6	0.2177616
116	0xbd2039ec	-0.03911774
117	0x3d03b9cc	0.03215961
118	0x3e18e79e	0.14932105
119	0x3c52d5b6	0.0128683355
120	0x3e275bee	0.16343662
121	0xbe673561	-0.22578956
122	0xbdd4a968	-0.10383874
123	0x3e9abf25	0.30223957
124	0x3e967460	0.29385662
125	0xbe5f6142	-0.21814445
126	0x3eac7214	0.33680785
127	0xbe663105	-0.22479637
128	0x3ea6f4f6	0.32608765
129	0xbe400d47	-0.18755065
130	0x3a29837a	0.000646643
131	0x3e8a17c7	0.26971266
132	0xbe4fcfbe	-0.20294091
133	0xbe829fd7	-0.25512573
134	0xbee2a06d	-0.4426302
135	0xbe897df2	-0.268539
136	0x3e0fd64e	0.14046595
137	0xbdfcf7fc	-0.12351987
138	0xbe0cb2bd	-0.13740058
139	0xbe59ec1f	-0.2128148
140	0xbec5546b	-0.38540968
141	0xbea8ef0b	-0.32994875
142	0xbe0ec5d6	-0.13942656
143	0xbdae87c6	-0.085219905
144	0xbe3021e5	-0.1720043
145	0xbe603fa2	-0.21899274
146	0xbe2782b2	-0.1635845
147	0x3e0b5428	0.13606322
148	0xbe3ab274	-0.18232137
149	0x3ea7f584	0.328045
150	0xbe943c50	-0.28952265
151	0xbee3b703	-0.44475564
152	0x3e38e9af	0.18057893
153	0x3e8bd0dd	0.27307788
154	0xbe5fe072	-0.21862963
155	0xbe6f79f8	-0.23386371
156	0xbd5ad7e1	-0.053428534
157	0x3d5af7ff	0.053459164
158	0x3eac17e4	0.33611977
159	0xbec04b5e	-0.375575
160	0xbd7603b7	-0.060062137
161	0x3deb6642	0.114941135
162	0xbe9fbd9e	-0.31199354
163	0xbe4243ac	-0.18971127
164	0x3d91f799	0.07127304
165	0x3e278d0c	0.16362399
166	0xbdbf245a	-0.093331054
167	0xbe489f69	-0.1959206
168	0xbebbb594	-0.3666197
169	0xbe999156	-0.29993695
170	0xbe4fe631	-0.20302655
171	0xbe75f14b	-0.24017827
172	0x3ee6d5e4	0.4508506
173	0x3e8a839b	0.27053532
174	0xbe6fa9b9	-0.23404588
175	0x3dbef1a0	0.0932343
176	0xbdf9297b	-0.12166115
177	0xbe8793ea	-0.26480037
178	0x3f046cb5	0.51728374
179	0xbe08e215	-0.13367493
180	0x3ec79d49	0.38987187
181	0xbeb1c022	-0.34716898
182	0x3d3ef7a1	0.046622876
183	0x3e9f7125	0.3114101
184	0x3e4142c6	0.18873128
185	0xbea20cef	-0.31650493
186	0x3d78341e	0.060596578
187	0xbdb04f83	-0.08608916
188	0x3e7d598c	0.2474119
189	0xbedccd4a	-0.43125373
190	0xbde66243	-0.11249211
191	0xbec60b66	-0.3868057
192	0xbe9e1d78	-0.30881858
193	0xbe8ea200	-0.2785797
194	0xbe626a0f	-0.2211077
195	0xbd528d1b	-0.0514041
196	0x3ed36a91	0.4129224
197	0xbe42c906	-0.19021997
198	0xbc81af09	-0.015830534
199	0xbe47dc23	-0.19517569
200	0xbe4d176c	-0.20028466
201	0xbd21befe	-0.039488785
202	0x3e80c181	0.25147632
203	0x3c1b9651	0.009496287
204	0x3e5bcd3c	0.2146501
205	0xbe9a1a23	-0.30098066
206	0xbd926909	-0.0714894
207	0xbeb5296a	-0.3538316
208	0xbe6413d2	-0.22273186
209	0xbe845490	-0.25845766
210	0x3e6e5cea	0.23277631
211	0xbd07cb9e	-0.03315317
212	0xbe8f5ab2	-0.27998883
213	0xbd4cca9a	-0.049997903
214	0xbedfb4e6	-0.43692702
215	0xbea32a21	-0.3186808
216	0xbdfc8ad1	-0.12331165
217	0x3e648d41	0.22319509
218	0xbf0cc93a	-0.5499455
219	0x3dce95b5	0.10087148
220	0x3dbf9f1b	0.09356519
221	0x3e6b214a	0.22961918
222	0x3dcfe257	0.10150593
223	0xbe3e4816	-0.18582186
224	0x3e5aacd6	0.21354994
225	0x3eb2ced9	0.34923437
226	0xbe520e76	-0.20513329
227	0xbec45f10	-0.38353777
228	0xbec0f135	-0.37684026
229	0x3d9156f6	0.070966646
230	0xbde756dc	-0.11295864
231	0xbe781dc0	-0.24230099
232	0x3e0be5a6	0.13661823
233	0x3e718ce1	0.23588897
234	0x3cdb7379	0.02678846
235	0xbd83e873	-0.064408205
236	0x3e83796d	0.25678578
237	0xbc5e4222	-0.013565572
238	0x3c86bc02	0.016447071
239	0x3d456194	0.04818876
240	0x3daea7d7	0.08528107
241	0xbc05267e	-0.008126853
242	0xbe92b3fd	-0.28652945
243	0xbe1564ad	-0.14589186
244	0x3ea14ace	0.31502384
245	0x3dbce6f5	0.09223739
246	0xbd3bbfad	-0.045837093
247	0xbed6f60a	-0.41984588
248	0x3ea69e9e	0.3254289
249	0xbe938d2c	-0.28818643
250	0x3e82fba6	0.25582618
251	0xbe9bd36f	-0.3043475
252	0x3e4f58b2	0.20248678
253	0xbe93f450	-0.28897333
254	0xbec4800c	-0.38378942
255	0xbe0aa6fa	-0.13540259

fc3.bias f4 [10]
0	0xbe3702cc	-0.1787216
1	0xbf030f1f	-0.5119495
2	0x3e9003da	0.28127939
3	0xbe67bb37	-0.2263001
4	0xbc8e8ac2	-0.01740015
5	0xbd0338e9	-0.032036696
6	0xbedbca4f	-0.42927787
7	0xbed3e60f	-0.41386458
8	0x3f4c3772	0.797721
9	0x3ee47de3	0.44627294
