Arafat_WS/MLP-100/saved/trained_mlp100-98.17p.pt (torch, 360783 bytes, 6 tensors)

fc1.weight f4 [100, 784]
000000 2a 6d 01 00 1b 32 02 00 a8 5a 01 80 b6 f3 00 80
       1.30996e-40 2.01645e-40 -1.24357e-40 -8.7427e-41
000010 9c 19 02 80 0a 77 01 80 88 ee 01 80 f6 48 00 80
       -1.92858e-40 -1.34539e-40 -1.77404e-40 -2.6173e-41
000020 c8 26 02 80 a6 11 02 80 ef 8b 01 80 fb 6e 00 80
       -1.97583e-40 -1.90002e-40 -1.42034e-40 -3.9812e-41
000030 84 ee 00 80 73 13 00 00 2e 2c 00 80 d0 fe 01 00
       -8.5563e-41 6.977e-42 -1.5849e-41 1.83245e-40
000040 6b 2c 02 80 d2 db 00 00 f2 7d 01 80 f0 c0 01 80
       -1.99605e-40 7.8857e-41 -1.37016e-40 -1.61048e-40
000050 18 26 02 00 08 ce 01 80 89 9f 01 00 7c 1e 02 00
       1.97336e-40 -1.65746e-40 1.49066e-40 1.94607e-40
000060 f4 85 01 00 d0 1c 02 00 43 25 02 00 9c e2 00 00
       1.39889e-40 1.94007e-40 1.97038e-40 8.1292e-41
000070 f2 1d 00 00 50 8b 00 00 d5 a9 01 80 a3 84 00 80
       1.0742e-41 4.9976e-41 -1.5276e-40 -4.7581e-41
000080 10 89 01 00 f0 08 02 00 b6 bb 00 80 2c b9 f0 ba
       1.41004e-40 1.86877e-40 -6.7338e-41 -0.0018365732
000090 d2 c1 26 bb 6b 73 0c bb b7 e2 10 b8 93 22 3c ba
       -0.0025445116 -0.00214311 -3.454342e-05 -0.0007176783
0000a0 28 81 c9 b9 96 9a 63 ba d9 7c c8 b9 80 c0 0e b3
       -0.00038433936 -0.0008682398 -0.0003823999 -3.323703e-08
0000b0 df dc 2d b8 5c a5 ca b8 02 00 00 80 0d 5d 00 00
       -4.1452116e-05 -9.662911e-05 -3e-45 3.338e-41
0000c0 28 72 00 00 ee ed 00 80 63 43 01 80 52 67 00 00
       4.0952e-41 -8.5353e-41 -1.16009e-40 3.7064e-41
0000d0 c1 0a 02 00 7a d9 00 00 d2 fa 00 80 af 17 00 80
       1.87529e-40 7.8016e-41 -8.9977e-41 -8.496e-42
0000e0 32 0d 01 00 f0 95 01 80 ee 62 01 80 d3 e8 00 00
       9.6569e-41 -1.45623e-40 -1.27325e-40 8.3522e-41
0000f0 8a 19 02 80 f8 dc 01 00 fe 19 00 80 e5 13 ce ba
       -1.92833e-40 1.71104e-40 -9.324e-42 -0.0015722482
000100 90 e9 24 bb 7e ae 1a bb e8 fd 03 ba 2f 20 47 bb
       -0.0025163628 -0.002360254 -0.00050350884 -0.0030384173
000110 27 53 28 bc 88 1e 6b 3c 51 d8 17 ba 17 35 77 ba
       -0.010273731 0.014350541 -0.00057924265 -0.0009430213
000120 65 3e c0 ba 28 9e 50 bb a0 67 92 ba 00 e5 7c 3a
       -0.0014667033 -0.003183255 -0.0011169799 0.0009647161
000130 d8 ee 19 3a 52 27 c0 b9 35 b1 41 ba 26 3f 40 36
       0.00058720773 -0.0003665039 -0.00073887716 2.8646987e-06
000140 80 db 01 80 62 ee 00 00 87 29 02 80 3e 44 00 00
       -1.70577e-40 8.5516e-41 -1.98568e-40 2.448e-41
000150 40 b6 00 00 07 0d 02 80 cc 1c 01 00 69 dc 00 80
       6.5379e-41 -1.88344e-40 1.02166e-40 -7.9068e-41
000160 1a e0 dd 23 e9 ae 4b a6 c0 c1 20 b6 70 38 4e bb
       2.4055779e-17 -7.066682e-16 -2.3954635e-06 -0.0031466745
000170 f8 a7 ad bb d9 e6 99 bb d7 38 93 bb 12 24 09 bd
       -0.0052995645 -0.0046967086 -0.00449286 -0.033481665
000180 c3 7e b9 bc a6 b0 33 3c da e3 09 ba 41 e3 b0 bc
       -0.022643453 0.010967409 -0.0005260088 -0.021592738
000190 f2 b6 e3 bc d3 5f 01 bd 31 24 28 bc e4 6c 22 ba
       -0.027797196 -0.031585526 -0.010262535 -0.00061960355
0001a0 9c fb 20 3b 43 f7 6d 3b e5 ae bf 3a a5 2f 2c b5
       0.0024564033 0.003631071 0.0014624266 -6.4144325e-07
0001b0 e6 ab 85 34 47 55 01 00 a7 09 02 80 07 23 02 80
       2.4898253e-07 1.22427e-40 -1.87134e-40 -1.96236e-40
0001c0 6d 29 02 00 0c 31 01 80 3b dc 00 80 22 29 4d ba
       1.98532e-40 -1.0943e-40 -7.9004e-41 -0.00078262587
0001d0 ce 48 e3 ba 35 8d fe ba c4 cd cc bb d5 dc 97 bc
       -0.0017340423 -0.0019420745 -0.006250115 -0.018537918
0001e0 33 50 fd bc 21 10 05 bd 2c 20 9c bc 2e 02 20 bd
       -0.030922031 -0.032486085 -0.01905831 -0.03906458
0001f0 42 fd 40 3c dd 73 6d bc 73 fa ac bc a2 eb 73 bb
       0.011779131 -0.014492956 -0.021115517 -0.0037219306
000200 3a c0 a5 bd 62 92 4d bd 32 44 43 bd d7 29 18 bd
       -0.08093305 -0.05018843 -0.047672458 -0.037149277
000210 85 fe 02 bc 01 ae c2 bb aa 53 73 3a 67 81 0a 36
       -0.0079952525 -0.005941153 0.0009282181 2.0638925e-06
000220 ff 7d f1 b3 d6 00 03 2f 1b 2e 02 00 32 3f 00 80
       -1.12453556e-07 1.1914678e-10 2.0021e-40 -2.267e-41
000230 c5 e3 00 00 c2 34 02 00 ee 7d 01 00 00 28 0c bb
       8.1708e-41 2.02597e-40 1.3701e-40 -0.0021386147
000240 5e 5c 62 bb c2 fd 54 3b 53 82 c1 3c c7 b4 d0 3c
       -0.0034539918 0.0032499884 0.023621714 0.025476826
000250 58 62 7a 3b 4f 94 35 bd 47 a3 fe bd 83 3e 71 bc
       0.003820559 -0.04433089 -0.124334864 -0.014724377
000260 d8 e8 90 bb 2c c2 da 3d fe bb fa 3b e1 a8 32 3d
       -0.0044222884 0.106815666 0.007651805 0.043618087
000270 b4 c2 ac bd 99 bf 10 be 85 b9 07 be 1f 38 61 bc
       -0.08435574 -0.14135589 -0.13254364 -0.0137462905
000280 c2 b0 1b 3d d4 cc 4b 3c 24 57 2a 3b 52 98 b7 38
       0.038010366 0.012438972 0.0025991881 8.754492e-05
000290 97 f4 73 bb 76 f3 41 bb 58 e9 01 00 e9 2c 02 00
       -0.0037224644 -0.0029594577 1.75543e-40 1.99782e-40
0002a0 3d 3b 00 80 2f 44 01 00 da 26 71 3b a5 57 7b 3c
       -2.125e-41 1.16295e-40 0.003679684 0.01534072
0002b0 f2 18 32 3c 44 a3 28 bb 67 7e bc ba d8 db 7b bd
       0.010870205 -0.002573208 -0.0014380933 -0.061488956
0002c0 1a fb 5d 3b fd 8e fc 3c 1a 8d 05 3e 47 5f 94 3d
       0.0033871592 0.0308299 0.13042107 0.07244735
0002d0 a9 d1 f5 3d 7d c8 58 3e cf 32 62 3e e2 3d ab 3d
       0.1200288 0.2117023 0.22089694 0.083614126
0002e0 a7 69 fb 3d 14 6f 0d 3e db 44 f7 bc 9b 59 89 bc
       0.12276011 0.13811904 -0.0301842 -0.01676636
0002f0 70 df 22 3b 6b da 2e bd e3 ea 12 bd 33 e5 8c bd
       0.0024852417 -0.04268877 -0.035868537 -0.06879654
000300 f1 8a 37 bc 20 c8 6c bb 3d b5 e1 2c b2 07 01 80
       -0.01120256 -0.0036130026 6.415006e-12 -9.4596e-41
000310 34 d2 63 93 5d b2 88 b9 eb 91 e4 3b 56 19 15 3c
       -2.8755066e-27 -0.00026072832 0.0069754026 0.009100279
000320 55 ee 5b ba d7 2b cb bd b7 22 48 3d 4f da 46 bd
       -0.0008389701 -0.09920471 0.04886123 -0.04854804
000330 98 19 2c 3d 17 de 5a 3e 3d ec 1f 3e 07 bd 86 3d
       0.042016596 0.21373783 0.15617462 0.06579023
000340 be 31 84 3e 65 18 85 3e e1 f8 7c 3e ca d6 c9 3d
       0.258192 0.25995174 0.24704315 0.09855421
000350 71 a6 22 bd 45 52 15 bd ee b4 6a bd c7 d5 bd bd
       -0.039709512 -0.03645541 -0.057301454 -0.092692904
000360 3a 6f bb bd 3d 60 09 be 3e 30 2e be a1 7f d3 bd
       -0.09152074 -0.13415618 -0.1701059 -0.10327078
000370 94 a3 10 bc 72 fb 85 bb 7f e0 16 ad 00 2a 02 80
       -0.008828063 -0.0040888125 -8.576361e-12 -1.98738e-40
000380 32 f7 db 14 51 ba 7e 3a 83 a9 81 3b 5a 00 77 ba
       2.221085e-26 0.00097170944 0.003956975 -0.00094223546
000390 cc 73 0f 3d d1 2b 17 bd 46 9b ae bc 30 d7 cb bd
       0.035022542 -0.03690702 -0.021314275 -0.09953153
0003a0 bb e2 09 3e ec ef 91 3d 1c 83 8f bb c2 1b 0f 3e
       0.13465397 0.071258396 -0.004379643 0.13975433
0003b0 8d 70 39 3e 2f de 0a be b3 e1 7e 3e 95 14 1a 3e
       0.18109341 -0.13561319 0.24890785 0.15046914
0003c0 2a b8 98 bd 28 12 2d bd 40 63 ef 3c 1c 56 41 bc
       -0.074570015 -0.042253643 0.02922213 -0.011800315
0003d0 b5 88 40 be ba 12 f9 bd 0f d7 c5 bd 64 00 9d bd
       -0.1880215 -0.12161775 -0.0966016 -0.0766609
0003e0 60 7d 39 ba c3 64 8e bb 8c 0a bd 94 65 c7 00 80
       -0.0007075872 -0.004345508 -1.9088283e-26 -7.1529e-41
0003f0 a2 f0 98 20 35 b2 b2 39 72 7a 3d bb d7 f2 20 3d
       2.590904e-19 0.0003408358 -0.0028912094 0.03929409

fc1.bias f4 [100]
000000 9d 95 88 be 92 98 fa bb 93 59 ca be 0e 83 ab bc
       -0.26676646 -0.0076475823 -0.39521465 -0.020936515
000010 8b 07 57 bb 78 0e c4 ba 86 83 28 bb 40 0c 33 b7
       -0.0032810892 -0.0014957925 -0.002571316 -1.0672084e-05
000020 b0 fa ff be 41 ec 01 bf 29 79 c1 be 60 12 d6 be
       -0.49995947 -0.5075112 -0.3778775 -0.41810894
000030 f9 08 71 ba 1b 9a ae bd ff 79 3f be 7a 2c 0b be
       -0.00091947574 -0.08525487 -0.18698882 -0.13591185
000040 2f 74 6e 3e 5e 14 00 3c d8 ea ca 3e f8 73 37 be
       0.23286508 0.007817356 0.39632297 -0.17915332
000050 60 e7 4f 3d b2 b1 d3 be 73 58 d6 3c d8 15 04 bf
       0.050757766 -0.41346508 0.026165223 -0.5159583
000060 84 38 08 be 58 40 71 3e 13 d2 17 3d 3c c9 2f ba
       -0.13302809 0.23559701 0.037065577 -0.00067057065
000070 9d 72 6c 3e df 3a 6d b8 31 d7 ba 3e b9 79 d8 be
       0.23090596 -5.656003e-05 0.36492303 -0.42280367
000080 a6 bf 07 bf 05 8d f5 3e 16 c8 47 bf 99 7d ec bc
       -0.5302681 0.47959152 -0.7803968 -0.028868483
000090 63 d8 f4 3d d9 2b 9a 3e 08 26 39 3e 74 cb 20 bc
       0.11955335 0.30111578 0.18080914 -0.009814132
0000a0 5f 80 04 bf 35 83 f7 ba 87 2f 64 3d 31 30 44 bf
       -0.5175838 -0.0018883707 0.055709388 -0.76636034
0000b0 2e 0a 8f 3d 1d b5 60 3e 43 c5 2f 3e 91 71 a9 be
       0.069843635 0.21944089 0.17165093 -0.33094457
0000c0 f7 19 8f 3d 4b 1b 09 3b db 56 74 3d 2f 8d 88 3c
       0.06987374 0.002092081 0.059653144 0.016668884
0000d0 60 38 bd be 31 4a 37 bd 9a f3 ef bc 4a aa 78 bc
       -0.36957073 -0.04474849 -0.029290963 -0.015177319
0000e0 ef 52 2a be fd 38 8c 3d 80 d9 17 bb 33 93 b6 3c
       -0.16633199 0.06846807 -0.0023170412 0.022286987
0000f0 6b e5 75 be 1b d3 4f be 9d d9 6b bc f5 99 2e 3e
       -0.24013297 -0.20295374 -0.014395145 0.17050917
000100 d4 4e 4d bd 20 a6 1c 3d 7d bf ac be bc f6 4a b0
       -0.050124004 0.038244367 -0.33739844 -7.38378e-10
000110 2d f7 30 bb e5 16 b5 bd ce 7f 7e bb 3f dd be 3e
       -0.0027002797 -0.088422574 -0.0038833502 0.37278172
000120 e3 89 8f bd 02 e0 b3 bd 2a 38 fe 3e 59 5d 16 be
       -0.07008722 -0.087829605 0.49652225 -0.14684047
000130 52 d7 04 bf a9 d6 c6 3d 59 43 72 3e 9d 35 9f bb
       -0.5189105 0.09708912 0.23658504 -0.004858686
000140 0c cd 97 3d d6 43 93 bc 96 8d 42 bf 71 e3 46 be
       0.074121565 -0.017976683 -0.75997293 -0.194227
000150 3e d9 3d be e8 61 f6 3e 13 12 c4 b9 71 58 0e 3d
       -0.18539903 0.48121572 -0.000373975 0.034752313
000160 8a ab 7f bf 12 1c 51 bf d6 62 01 3c d4 28 2c bc
       -0.9987112 -0.81683457 0.0078970995 -0.010507781
000170 7b af 07 bf 28 31 50 bf a5 20 0b be 69 b9 78 bb
       -0.53002137 -0.81325006 -0.13586672 -0.003795231
000180 54 e3 3a bb 3b e0 21 3c 10 fa 52 3e 82 eb e1 3e
       -0.0028516846 0.009880121 0.20603204 0.4412499

fc2.weight f4 [100, 100]
000000 10 a4 df bd a0 1b eb 3e 60 f0 48 3e 3f 50 4d 3e
       -0.10919964 0.45919514 0.19622946 0.20050143
000010 08 54 bd 3e 63 af a2 bd ce 0f 67 bd 5b cc 15 3f
       0.36978173 -0.079436086 -0.056411557 0.58514947
000020 0c 73 a9 3e c2 8a a0 bd 85 0b 6a be 21 67 5e 3e
       0.33095586 -0.07838966 -0.22855957 0.21719028
000030 99 33 50 bd 42 ed 8b 3e 1a 7f 77 be ad 84 84 be
       -0.050830457 0.2732945 -0.24169579 -0.25882474
000040 10 88 12 3e 22 0e 3d bd 8e 1a 08 be 94 11 1d 3e
       0.14309716 -0.046156056 -0.1329138 0.15338737
000050 8b 7f c0 bb 76 be e0 3e bb 9c f7 3c b8 80 3a bd
       -0.0058745793 0.4389531 0.030226102 -0.045532912
000060 e7 af 0b be e5 f9 8b be 6a 59 fb 3e b5 66 c8 3e
       -0.1364132 -0.27339092 0.49091655 0.3914086
000070 d0 26 bf 3e e5 ac 04 3f 87 1a dd bd d9 9b 84 be
       0.373343 0.51826316 -0.10796075 -0.25900152
000080 98 d5 5b be 70 59 f0 bc 6e 06 a2 bd 11 62 88 3e
       -0.21468198 -0.029339522 -0.079113826 0.2663732
000090 9d 93 28 be 99 02 30 be 58 04 f4 bd 81 e3 95 bd
       -0.1646256 -0.17188491 -0.11914891 -0.073187836
0000a0 6d 3e b4 be 2f aa c0 bd ee 1a 3a be 03 b2 34 bd
       -0.35203877 -0.0940746 -0.18174335 -0.044115078
0000b0 bb 9a 4f bd 6e 07 91 3e 3d 72 fa bb ec 9b cf 3d
       -0.05068467 0.2832598 -0.007643013 0.101371616
0000c0 24 86 4c be ff a7 ef bd fa 8a 36 be ec 30 5e 3d
       -0.19973046 -0.117019646 -0.17826453 0.054245874
0000d0 c9 3f e7 bd a5 8a af be e0 fb 6c 3e 22 b7 4c bd
       -0.11291463 -0.34285465 0.23142958 -0.049979337
0000e0 fc ef 48 bc e8 bb de bd ab b4 80 3d bd 0d 10 3f
       -0.012264248 -0.10875684 0.0628446 0.5627096
0000f0 4f aa ec 3e d4 b5 97 3e 5b 8d 9c 3e ae 5e 8d 3e
       0.46223685 0.2963091 0.30576596 0.27611297
000100 e7 81 02 3f 23 b1 80 3d f8 6d 59 3d 6e 0f 5b bd
       0.50979465 0.06283786 0.05308339 -0.05348151
000110 16 33 1e be 77 2b 2d bd 81 4a 5d 3b d7 87 bf 3e
       -0.15449175 -0.04227778 0.0033766332 0.37408325
000120 3a a3 74 3e 2a 57 77 be 8e 2c 63 3d d7 52 f8 bd
       0.23890391 -0.24154344 0.055462413 -0.121251754
000130 4f 73 2b 3e 4b 98 cf be 11 46 27 3f 10 b2 a9 3e
       0.16743205 -0.40545878 0.6534129 0.33143663
000140 27 75 a7 3d 20 7f b6 3e 0d 75 e3 3e 6e c0 d4 3d
       0.08176642 0.35643864 0.4442524 0.103882656
000150 67 d1 02 be 7f d8 d9 3e 86 2f 0d 3f e6 f0 2b 3f
       -0.12775193 0.42547986 0.5515064 0.67164457
000160 4c 1e 42 3e e9 fa e8 bd e7 ee 22 bc 9b bd 04 be
       0.1895687 -0.11375982 -0.009944654 -0.12962954
000170 0d 00 29 bd 50 3f 86 3d bb ca a0 3e 5e e9 58 be
       -0.041259814 0.06555045 0.3140467 -0.21182773
000180 b4 3a 50 be 4e e2 d7 bd 5a bb 7c bd 47 ea 17 3d
       -0.20334893 -0.10541211 -0.06170211 0.03708866
000190 c4 c9 bc 3e 97 9c d5 3e d6 42 1a bd c6 8f fc bc
       0.36872685 0.4172103 -0.037661396 -0.030830275
0001a0 36 55 27 3f 07 79 f3 3e 5d 87 00 3f 4e ca d9 3d
       0.65364397 0.47553274 0.5020655 0.1063429
0001b0 96 b9 84 ba a2 5a 35 3d c4 64 f2 3e fd 2c d4 3e
       -0.001012611 0.044275887 0.47342503 0.41440573
0001c0 b6 bd 15 3f f7 7d 6c 3e e4 b2 e1 3c 7e 28 9b bc
       0.584926 0.23094927 0.027551122 -0.018940207
0001d0 63 87 5c bd 38 e6 e3 3e 8c b0 45 3e 83 86 07 be
       -0.053840052 0.4451158 0.19305629 -0.13234906
0001e0 a4 19 12 3f e0 b5 a1 be 77 20 fe bd 55 0b 5a bd
       0.57070374 -0.31584072 -0.12408536 -0.053233463
0001f0 e0 d6 d7 be d8 71 d0 3d 20 65 b5 bd 71 18 98 be
       -0.42156124 0.10177964 -0.08857179 -0.29706147
000200 36 26 ca be 87 fa 9d bd eb 6d a6 bd 7f 71 8f 3e
       -0.39482278 -0.077138 -0.08126434 0.28016278
000210 2e 95 14 3c 26 7d 71 be 2c 90 ec bd 76 17 b4 3d
       0.00906877 -0.23582897 -0.11550936 0.08793537
000220 91 35 8e bc 7d 30 c7 3e 31 e9 e4 bd b2 d1 a2 3e
       -0.017359527 0.3890418 -0.1117729 0.3180061
000230 b0 eb cc 3c 12 04 eb 3e 75 12 b5 3d a7 c0 e1 bd
       0.025014728 0.45901543 0.08841411 -0.11023074
000240 07 3e 6a 3e 94 1a 12 3e f4 92 6a be a0 9c 50 be
       0.22875224 0.14267951 -0.2290762 -0.20372248
000250 cf 31 c9 3d 1f ad 0a 3e 6d d6 4d be 9f ec b0 be
       0.09823953 0.13542603 -0.20101328 -0.34555528
000260 e3 0e ec bc 63 b6 80 bd 80 8a 23 be 9a 26 2d 3e
       -0.028815692 -0.062847875 -0.15970802 0.16909257
000270 5b a7 93 3e 8b 99 1d be a7 bd da 3e ff 72 a9 bd
       0.2883862 -0.15390603 0.42722818 -0.08273887
000280 26 64 c3 be 7f 94 41 be 84 dd 3f 3c 2c 64 3c 3e
       -0.38162345 -0.18904303 0.011710528 0.18397588
000290 20 42 b1 be c2 63 08 be 8d 79 cb 3e 42 1c e6 bc
       -0.34620762 -0.13319305 0.39741173 -0.028089646
0002a0 5d 74 07 3f 2e 50 cb bd f8 26 85 bb e3 24 33 be
       0.5291193 -0.099274024 -0.0040634833 -0.1749454
0002b0 57 16 dc be c1 fb 08 3f f7 95 1f be b0 58 d9 3c
       -0.42985794 0.53509146 -0.15584551 0.026531547
0002c0 28 f2 9a 3d a4 a1 c5 3e 9f b8 1f 3f 34 98 f4 3d
       0.07565719 0.38599885 0.62391084 0.11943093
0002d0 20 30 bc bd db da 37 be 3a d1 8e be c8 46 03 3f
       -0.091888666 -0.1795458 -0.27894002 0.5127988
0002e0 33 3f 00 bc 47 49 72 3d 8b a8 cf bd 4d cc 55 3e
       -0.007827568 0.059151914 -0.10139569 0.20878716
0002f0 0e 25 fe be 62 46 4d be 42 fd 61 3a d5 d3 3b be
       -0.49637645 -0.2004638 0.0008620807 -0.18342526
000300 b2 fd 8a 3e c0 56 db 3e d2 f0 8f 3c 6f f2 69 be
       0.2714668 0.42839622 0.017570887 -0.22846387
000310 b5 70 eb be 95 0d 3c be 04 ad 06 be 20 73 9b be
       -0.45984426 -0.18364556 -0.13151938 -0.3036127
000320 a9 16 14 bd b1 a0 33 3e da c4 02 3d 9a b0 6d 3e
       -0.036154423 0.17541768 0.031926014 0.232119
000330 a9 47 2e 3f 3c 64 c8 3e e5 7d c6 3e 29 70 24 3f
       0.68078095 0.39138973 0.38767925 0.6423364
000340 30 0c c9 3d 99 24 34 3e af 29 30 be 79 11 b4 be
       0.09816778 0.17592086 -0.17203401 -0.3516958
000350 d6 4c 02 3e aa ae ec bd 79 6b 92 3d 36 44 71 be
       0.12724623 -0.11556752 0.07149405 -0.23561177
000360 88 67 54 be 1f a1 ad be b2 65 95 be f2 62 b5 be
       -0.20742619 -0.33911988 -0.2917915 -0.35427052
000370 fe e8 24 be f4 d4 ab bd e9 e7 0f be 97 c7 68 3e
       -0.16104504 -0.08390227 -0.1405331 0.22732387
000380 85 c1 98 be df 4c 88 bd 0e 4b da 3e ae 06 28 be
       -0.29835144 -0.06655287 0.42635387 -0.16408798
000390 8a 6b cc 3e ff 75 43 bd ac c3 d2 3c ab 2b 5a 3d
       0.39925796 -0.04771995 0.02572807 0.0532643
0003a0 dc 85 99 be 3a 0b 56 be 1b 19 be be 93 11 9d 3d
       -0.2998494 -0.2090272 -0.3712853 0.07669368
0003b0 fc 1d 49 bd 42 01 29 3e 0a 8b db bd 52 ff a7 bc
       -0.04910086 0.16504386 -0.10719879 -0.020507488
0003c0 8d 9d 92 3e f9 be 9e 3d af b8 ba bc 65 f1 1c bf
       0.28635827 0.07751269 -0.022793142 -0.6130584
0003d0 ae 23 8c be 43 7d ab 3c 6a af fd bd fd 2d 51 be
       -0.2737097 0.020933753 -0.12386973 -0.204277
0003e0 a7 7d 2a be a3 3e 09 be c7 a0 25 be fe dd 8e be
       -0.16649495 -0.134028 -0.16174613 -0.27903742
0003f0 19 5c 06 be 64 b3 bf be ff 5a d6 bd 28 48 ad bc
       -0.1312107 -0.37441552 -0.10466575 -0.02115257

fc2.bias f4 [100]
000000 f1 da 03 3e 2a 29 fe 3e 42 25 97 3f 93 91 67 3e
       0.12876488 0.4964078 1.1808245 0.22614126
000010 a3 3b 19 3f 2c 3d 38 3f a5 41 6e 3e df 39 2d 3f
       0.59856623 0.7196834 0.23267229 0.6766643
000020 cd 6e cf 3f b9 66 76 3f 67 bc 02 bc b4 e1 2e be
       1.6205689 0.9625049 -0.007979489 -0.17078286
000030 fe d7 8d be af 73 b1 bd a0 ef b3 bd 71 2f 32 be
       -0.2770385 -0.08664643 -0.08785939 -0.1740091
000040 38 f5 67 3e 94 42 a9 bd 85 12 24 be 67 a5 6b be
       0.22652137 -0.08264652 -0.1602269 -0.23012315
000050 3c 1f 7d 3f 0b 00 83 3f b1 06 18 bd cd 10 55 be
       0.98875785 1.0234388 -0.037115756 -0.2080719
000060 4c 5a 8a 3f 97 d6 07 3e dd 9a 42 3e 29 7c 6e bd
       1.0808806 0.13265453 0.19004388 -0.058223877
000070 20 78 10 3f ed 58 ea 3d b1 06 18 bd 5a f3 da be
       0.56433296 0.114427425 -0.037115756 -0.42763788
000080 b1 06 18 bd b1 06 18 bd b1 06 18 bd ad 22 ab 3f
       -0.037115756 -0.037115756 -0.037115756 1.3369957
000090 d1 a3 65 be e9 c5 9a 3d d1 8e 0c 3f 53 7e 2e be
       -0.22425772 0.075572796 0.5490542 -0.17040376
0000a0 f3 c1 8f 3e 83 3e be 3e b1 06 18 bd 07 93 61 be
       0.2807766 0.37157068 -0.037115756 -0.22028743
0000b0 b1 06 18 bd 36 73 bc 3f 19 36 8b bd ea a0 b4 be
       -0.037115756 1.472266 -0.06797428 -0.35279018
0000c0 1d 5a ad bd e3 84 e6 3e 7d 4d 30 bd b1 06 18 bd
       -0.08464453 0.4502326 -0.04304265 -0.037115756
0000d0 b1 06 18 bd 8d bc 36 3f 48 8d 89 bd b1 06 18 bd
       -0.037115756 0.71381456 -0.067164004 -0.037115756
0000e0 81 37 d1 bc 19 5a 5a be 77 a8 32 3e 60 d2 13 3f
       -0.025539162 -0.21323432 0.17447077 0.5774288
0000f0 44 73 a8 3e 67 20 8f 3e 10 79 87 3c b1 06 18 bd
       0.3290044 0.2795441 0.01653722 -0.037115756
000100 7d b9 9f 3f b1 06 18 bd b1 06 18 bd 43 f8 9e bd
       1.2478482 -0.037115756 -0.037115756 -0.07762196
000110 07 5d 7e 3d ac 4c 2e be b1 06 18 bd 82 7c 8b bd
       0.062100437 -0.17021435 -0.037115756 -0.06810857
000120 f5 ba b8 bc 63 b7 8d be b1 06 18 bd b1 06 18 bd
       -0.022550086 -0.27678975 -0.037115756 -0.037115756
000130 99 fc 2a be b1 06 18 bd 94 89 85 3f 56 1a 88 3d
       -0.16697921 -0.037115756 1.043261 0.06645648
000140 2a 99 5b 3f 9b 18 16 3e 94 93 22 bd f1 cb 96 3f
       0.85780585 0.14657824 -0.039691523 1.1780988
000150 b1 06 18 bd 1c f0 65 be 89 46 a6 3d b7 09 c9 3f
       -0.037115756 -0.22454876 0.08118922 1.570609
000160 0c e0 aa bc b4 ee e9 bd b1 06 18 bd d9 ef 63 be
       -0.020858787 -0.11422482 -0.037115756 -0.22259463
000170 53 a7 cd 3e a0 72 9b be 99 68 4f be 52 ea 65 be
       0.4016672 -0.3036089 -0.20254745 -0.22452667
000180 5e ff 8f 3d 95 c8 7f be af cf 7c 3e b1 06 18 bd
       0.07031129 -0.2497886 0.246886 -0.037115756

fc3.weight f4 [10, 100]
000000 07 a6 db bc 03 e7 21 3d 57 9b 1f bd c3 75 9f 3d
       -0.026812566 0.03952695 -0.038966503 0.07786133
000010 d2 37 b1 3d bf 9f af bd 90 84 16 bd 60 53 94 bc
       0.08653225 -0.08575391 -0.036747515 -0.018106163
000020 d7 a6 66 bd eb 5e a1 3d cd 80 aa ba ca c4 34 3d
       -0.056311455 0.07879432 -0.0013008356 0.044132985
000030 cd 73 d0 bb d7 1a 13 bd cd 62 48 bd bd da 6e 3d
       -0.006361461 -0.03591427 -0.04892235 0.058314074
000040 6a 88 20 bd 60 a4 fb 3c 08 83 ad bd d0 ba 1c 3d
       -0.039192595 0.030718029 -0.08472258 0.038264096
000050 60 d4 e2 bc 8a 44 99 bd b8 23 b2 3d 33 a9 9c 3d
       -0.027689159 -0.07483776 0.08698219 0.0764946
000060 77 52 00 3d e0 13 cb bc 6b 19 c6 3d 20 e6 de 3c
       0.031328645 -0.02478975 0.09672817 0.027209342
000070 33 e7 7b bb 3f 63 87 bd fd 98 1e 3d ed dd 68 bd
       -0.0038437366 -0.066107266 0.03872012 -0.05685227
000080 ba 27 bd bc d0 80 46 bd b8 c6 95 3d 03 2a 54 bd
       -0.023090232 -0.04846269 0.07313293 -0.051797878
000090 a7 21 a6 bc 3a ad 95 bc 53 4f 52 bd da fe ad bd
       -0.020279719 -0.018271077 -0.05134518 -0.08495875
0000a0 cd 7a 18 3c d0 4a 2e 3d 67 06 65 39 9a 90 f8 bb
       0.009306622 0.042551816 0.00021841527 -0.007585597
0000b0 07 36 1e 3d 5a d6 2d bd d8 c1 b1 3d 33 30 29 bb
       0.038625743 -0.04244075 0.08679551 -0.0025816082
0000c0 fb d3 be 3d 0d a9 e5 bc 10 6e 28 3d e8 00 bf 3d
       0.09317776 -0.028034711 0.04112059 0.09326345
0000d0 e0 1c c5 bd 7a 25 51 3d 5a 30 89 3d 23 c1 48 3d
       -0.09624648 0.05106113 0.066986755 0.049012315
0000e0 e0 e1 29 bd e5 dd a7 3d c0 f1 19 3d 67 c5 73 3b
       -0.041475177 0.0819662 0.037584066 0.0037196518
0000f0 50 d4 6c 3d 1a 5c 67 3d c2 31 9c 3d 1a d8 e5 3c
       0.057819664 0.05648432 0.07626678 0.028057147
000100 a7 96 e1 bc cd 12 4b 3b 52 df a0 bd 20 bb f8 3c
       -0.027537657 0.0030986548 -0.07855095 0.030362666
000110 33 0d 85 3d 77 74 a1 bd 67 2f 04 bc dd 04 0f bd
       0.06496658 -0.07883542 -0.008067942 -0.034916747
000120 6a a3 79 bd c7 e9 5a 3d b2 89 81 bd f3 0a b1 bd
       -0.06094686 0.053445604 -0.063250914 -0.086446665
000130 90 9a 8f bd c5 bc 9c 3d da bf 89 bc 1a 95 9b bc
       -0.07011902 0.076531924 -0.016815115 -0.018991996
000140 f0 2d 5f bd a5 6c 93 3d db 88 ab 3d 2a 31 98 3d
       -0.05448717 0.07198457 0.083757125 0.07431252
000150 7a b9 26 3d 75 5e ac 3d ba c7 98 3c d0 6c 56 bd
       0.040704228 0.08416454 0.018649925 -0.052349865
000160 33 c1 6e bb 87 64 41 bd 90 b3 83 bd 3d e8 b7 bd
       -0.0036431074 -0.04721501 -0.06430733 -0.08979843
000170 80 71 f3 bb e0 97 e8 3c 1d e3 79 bd aa f8 6b bd
       -0.0074293017 0.028392732 -0.061007608 -0.05761019
000180 d0 18 bd 3d 73 95 b0 bd 93 c3 71 3d c5 32 a6 bd
       0.09233248 -0.08622255 0.059024405 -0.08115152
000190 9d e6 1a 3d da fc 93 bd fa 74 ba 3c 40 c5 0c bd
       0.037817586 -0.07225962 0.022760857 -0.0343678
0001a0 28 f5 9a bd 2d 23 23 bd 30 a7 8f 3d 8d 29 03 bd
       -0.07566291 -0.039828468 0.0701431 -0.032022048
0001b0 53 1f d6 3c 4d f4 5b bc 1b 01 99 bd 8d 78 91 3d
       0.026137983 -0.013424945 -0.07470914 0.07103071
0001c0 9a c3 48 3d 38 32 90 bd e0 ee b9 3d 97 a3 80 bd
       0.049014665 -0.070408285 0.09078765 -0.06281202
0001d0 45 d6 c8 3d a3 52 7b bd a0 96 8f bd d2 30 c5 bd
       0.09806494 -0.061358105 -0.07011151 -0.09628452
0001e0 6d c4 c3 bd 32 3c c5 bd 13 5e 88 bd b7 6d 4d 3d
       -0.095589496 -0.09630622 -0.06658568 0.05015346
0001f0 03 db 1d bd 20 f1 95 3d 40 89 b6 bc 80 65 4f bd
       -0.038538944 0.073213816 -0.022282243 -0.050633907
000200 5b 61 91 bd 0d 6c 93 bd 10 8c c9 bd 6d 78 82 bd
       -0.07098647 -0.071983434 -0.09841168 -0.06370626
000210 40 6d 53 bd 4d 17 19 bc 80 41 23 bc e3 48 9a bd
       -0.05161786 -0.009343934 -0.009964347 -0.07533433
000220 70 32 6f 3d 60 c9 c7 bc f7 c2 76 bd 33 76 94 3d
       0.05839771 -0.024388015 -0.060244527 0.07249107
000230 4f 12 a3 3d 67 23 e6 bc 08 f0 af bd 72 a0 ac bd
       0.079624765 -0.028093053 -0.08590704 -0.0842904
000240 70 76 03 bd e0 e8 ff 3c 33 3a 1b 3d 5a 18 75 3d
       -0.032095373 0.031238973 0.0378973 0.059837677
000250 0a a6 72 bd cd 4d 3a 3d ed e4 77 3d 3f f2 b2 3d
       -0.05924038 0.045484353 0.060521055 0.08737611
000260 0d 4a d1 3c 80 05 2a 3d d0 aa 22 3d fa 74 4b bd
       0.025548005 0.04150915 0.03971368 -0.049672104
000270 8d ff 43 bc 4d 68 41 bc 2d 13 58 bd 73 9e 38 bc
       -0.0119627835 -0.011804652 -0.052752662 -0.011268246
000280 b0 7f 4f bd 60 ab a8 3c 47 61 84 3c ea 1f 30 3d
       -0.05065888 0.02058953 0.016159667 0.042999186
000290 4b 96 92 3d 27 43 73 3d e7 26 11 3c 00 96 9d 3a
       0.07157572 0.059390213 0.008859373 0.0012022853
0002a0 c3 2c 05 3d b5 f1 bd bd 35 13 a0 3d 90 58 c6 3d
       0.03251339 -0.092746176 0.078161635 0.09684861
0002b0 52 cc bc 3d da 4c 10 bd 87 64 95 bc fd b3 a1 3d
       0.092186585 -0.03522954 -0.018236412 0.07895658
0002c0 f0 74 bc 3d b3 06 70 bd 0d c3 a4 3c 27 19 23 3c
       0.092019916 -0.05860014 0.020112539 0.009954727
0002d0 f7 13 14 bd 1d bb 17 3d 42 23 93 bd 9a 9f 76 bb
       -0.036151852 0.03704368 -0.07184459 -0.003763175
0002e0 03 d7 87 bd 4d 47 d9 bb 8d 38 ce 3c 8d ea 1f 3c
       -0.06632807 -0.006630814 0.02517345 0.009760511
0002f0 87 e2 8d 3d d3 dd 9e bc 43 04 ae bd b3 85 3d 3d
       0.06927972 -0.019392883 -0.084969066 0.046270084
000300 bd e9 b6 3d f3 58 0c 3d bd 32 9d bd fd 16 56 bd
       0.08931301 0.034264516 -0.07675693 -0.052268017
000310 93 cf 1f bd b3 40 ab 3c 87 64 73 bd 70 b7 7f 3d
       -0.039016318 0.020904874 -0.059422042 0.0624308
000320 4d e0 36 bc d3 0e 89 3c aa 4b 5a 3d 83 42 a7 3d
       -0.011161876 0.016730702 0.053294815 0.08166983
000330 0d 3f 52 3d 60 86 b4 bc 07 58 bb 3c cd 1c 6b 3d
       0.05132966 -0.022036731 0.022869123 0.057400513
000340 38 cc 9e 3d da 66 d9 3c ea a3 c4 bd b3 b0 2d 3c
       0.077537954 0.026538301 -0.096015766 0.01060121
000350 9a 2f cf bc 20 5e 85 bd 0a 53 69 bd da 74 d3 3c
       -0.025291253 -0.065120935 -0.056963958 0.025812555
000360 ef 2b 97 3d a7 28 2b 3d 13 99 15 3d d7 74 34 bd
       0.073814265 0.041786816 0.036522936 -0.04405674
000370 40 22 af 3d 20 08 1f bd db b8 ca bd cb cf 92 3d
       0.085514545 -0.038826108 -0.0989854 0.071685396
000380 0d 37 6d bd c0 40 34 3d e8 12 c2 bd 90 2f 97 bd
       -0.05791383 0.044007063 -0.09476262 -0.07382119
000390 27 50 70 bd a8 b5 be 3d 1d 45 77 bd 20 fb b1 bd
       -0.05867019 0.09311992 -0.060368646 -0.086904764
0003a0 b8 32 81 bd 0d 91 83 bc a3 15 18 bd b3 9e 1f bc
       -0.06308502 -0.016060377 -0.03713001 -0.009742427
0003b0 ba c1 c7 bd 53 15 87 bd 67 a9 3c bb e7 f1 cf 3b
       -0.09753747 -0.06595864 -0.0028787495 0.0063459757
0003c0 e8 94 b9 bd 8f fd bc bd 5d 48 0d bd 5d 39 89 3d
       -0.09061605 -0.0922805 -0.03449284 0.06700394
0003d0 ba c5 3f 3d c0 c5 93 3d f7 98 c4 3d da e7 c8 3d
       0.046819426 0.07215452 0.09599488 0.09809847
0003e0 9a 45 86 bc 0d c8 2e 3c b7 e3 75 3d 9b 0f 82 3d
       -0.01639061 0.010667813 0.06003162 0.06350633
0003f0 ba 53 a1 3c c0 f4 3f 3d eb aa c1 bd ed 61 28 3d
       0.019693244 0.04686427 -0.09456428 0.041109014

fc3.bias f4 [10]
000000 6d 35 95 bc 57 1f 2b bd 58 88 ac bd b2 57 85 3d
       -0.018213952 -0.041777935 -0.08424443 0.06510867
000010 a5 e4 a9 3d fb 42 af 3d 67 16 ba bc 9d 71 aa bd
       0.082955636 0.085576974 -0.02271576 -0.08322451
000020 5a 6f 5b bd 3a 17 ad bd
       -0.05357299 -0.08451696
