Arafat_WS/MLP-100/saved/trained_mlp100-98.36p.pt (torch, 360783 bytes, 6 tensors)

fc1.weight f4 [100, 784]
00000000: 4d57 0400 a14b 0000 0b81 0300 76dd 0480
00000010: 2297 0400 ca4b 0200 0822 0380 696c 0400
00000020: 6331 0000 e0a5 0380 f592 0180 da5a 0300
00000030: 0737 8cb8 05a3 2cbb 380d 5eb9 48ff 3720
00000040: b5d6 0200 0ee0 0380 547f 0380 b539 0400
00000050: dd64 0400 2229 0400 37c2 0200 55e3 0380
00000060: e90e 0480 d39e 0100 293e 0100 afcf 0200
00000070: dd41 0000 9b03 0480 5f88 0180 3c01 0500
00000080: 4e4e 0400 0466 2f2b 3fed 1fbb b83d 22bc
00000090: f40a 1fbc d3f3 88b6 ce84 deba 9eec 25bc
000000a0: 6135 c8bc 43b2 0abc 7174 68ba 2ad2 efbb
000000b0: deb7 7fbc dfd6 0cbc 72aa ceb7 14d6 60ba
000000c0: ea1c 52ba 5c3e 14bc 77fb 2fbc 9a61 56b9
000000d0: 441e 0100 c08e 0280 3d47 0180 9c76 0400
000000e0: e121 0300 73c9 0200 322b 0380 396f a1b0
000000f0: b5fe 5c23 3c96 e02a 02db 7bbb efee 5dbc
00000100: f06c 6abc 4543 c1bb 1a5e b7bb 33eb babc
00000110: e0d2 12bd 0b94 4dbc 543e d3bc 2160 50bc
00000120: 636f cebc 50af 02bd 0a7c abbc c8d0 e4bb
00000130: 8b22 c7bb 95a8 29bc 4358 8fbc a96d c1bb
00000140: 9402 c7b9 5104 a7b8 8e03 0400 1123 0180
00000150: 639b 0300 2c4d 0400 781d 0480 eb5d a2b8
00000160: 484e 28b0 d762 beb1 a8ae 9abc 9ee2 b9bc
00000170: a508 18bd f92b 6cbd 09cf 2dbd 2f1d fcbc
00000180: e134 4bbd f79f 50bd 86a2 2abd 5581 b0bc
00000190: 9939 0ebd a08b 64bc 6244 09bd 3764 82bd
000001a0: 90c7 5dbd 9788 44ba 568c 473c a537 49ba
000001b0: df27 863a 86c8 8a3b 27d8 4a3b 9906 0400
000001c0: f65d 0280 ed42 0480 c3a9 0300 bf27 0080
000001d0: a157 e534 e742 48bc 0306 debc 3fc0 8ebc
000001e0: c2c0 d1bc 13f0 55bd 3870 f7bc 630c bbbd
000001f0: e86f 31be a1d6 4ebe e721 b7bd 2a76 5d3d
00000200: 5f43 8f3c aa25 d1bd ad6d dabd c511 1dbe
00000210: 15e1 d7bd dc49 283c 5f52 ae3c 1693 533b
00000220: 9de2 a337 24f9 763a f647 863a b189 0080
00000230: 3794 0180 1ce6 0380 6ca1 0180 459b 5730
00000240: 1b0d 3bbc db93 49bd 1d48 3dbd 154c 06bc
00000250: 4df4 303d b1d8 8cbc 1725 39bd 7526 32be
00000260: d66e 54be a61c 80be 10fc 0cbe f7d3 4bbe
00000270: 5875 aebe 8666 68be befe 17be bbc2 80be
00000280: ca42 42be 087d 2c3c 97c6 f93c 4122 7b3c
00000290: 4dad b63c 8a8e a33c 776b 423a a2c6 0100
000002a0: d9d3 0100 4f9e 8a1d c179 239e 74f3 273a
000002b0: 6949 84bc f377 68bd 53c0 11bd ca76 0bbd
000002c0: 82fe 333d 1bea a23b fd78 f2bd add6 b4bd
000002d0: e821 85bd b4b2 0cbe 5548 f6bb 1d3f 02be
000002e0: ecfa 19be bbf5 e73d 8ebf f33b bad5 f9bd
000002f0: 19be 373b 2657 a33c 839b 473d 6d9d 853c
00000300: 2dc5 2e3d a554 b43c b502 28bb 10c1 0180
00000310: 0565 0400 fe5d c73a 3a26 a1ab 116d e9ba
00000320: 97a3 fe3b 5151 dbbc 847b 24bd c30c 06be
00000330: acd5 b7bc 497d f03c 3488 0bbd 9dde 91bd
00000340: a0c6 07be 3251 e3bd 70e2 8f3c ae8a 09be
00000350: d2f1 db3d cfae 913d d6dc d23c bb27 b5bc
00000360: e1d2 cabc f201 85bd 1635 5dbc bddc e9bd
00000370: 2c0d 413d d504 f03b 3034 31bb 516a 0000
00000380: 817d 02bc 71cc bb3a 183d 9038 e8bb 70bc
00000390: c5f8 143c 5c21 8bbc f778 8dbd 6c0f 05be
000003a0: 81de 913d 1c25 bc3c 595d d9bd 0beb 11bc
000003b0: 75e9 18be 3365 77bd 86dd e4bc efef 8fbd
000003c0: c713 953d eb6b 58bd 81da 0c3e f5d7 87bd
000003d0: 4c25 77be dc29 46be 6ef3 c4bd a7ec 9dbd
000003e0: 1602 b53a 85e2 64bd 4283 bfbb feae 0000
000003f0: 54a3 48a5 2b38 11ba 274d 48bc 9b1a 29bc
3.9866e-40 2.713e-41 3.21798e-40 -4.46787e-40 4.21558e-40 2.10859e-40 -2.87715e-40 4.06232e-40
1.7717e-41 -3.35011e-40 -1.44554e-40 3.08098e-40 -6.68597e-05 -0.0026342284 -0.00021176494 1.5585168e-19
2.60693e-40 -3.55882e-40 -3.21183e-40 3.88043e-40 4.03525e-40 3.82098e-40 2.53342e-40 -3.57058e-40
-3.72691e-40 1.48811e-40 1.14134e-40 2.58174e-40 2.3627e-41 -3.68635e-40 -1.40756e-40 4.5962e-40
3.95432e-40 6.2314064e-13 -0.0024402884 -0.00990241 -0.009707201 -4.0815007e-06 -0.0016976835 -0.010127215
-0.024439516 -0.0084653525 -0.0008867449 -0.0073187547 -0.015607802 -0.008596151 -2.4636483e-05 -0.0008576822
-0.0008015173 -0.009048071 -0.010741106 -0.0002044499 1.02693e-40 -2.3488e-40 -1.17391e-40 4.09891e-40
2.8766e-40 2.55937e-40 -2.91002e-40 -1.1745903e-09 1.198016e-17 3.989464e-13 -0.00384301 -0.013545736
-0.014308199 -0.0058979117 -0.0055959346 -0.02281723 -0.035845637 -0.012547503 -0.025786556 -0.012718231
-0.025199598 -0.031905472 -0.02093317 -0.0069828965 -0.006077116 -0.0103551345 -0.017498141 -0.005902965
-0.0003795816 -7.9639845e-05 3.68617e-40 -1.04415e-40 3.31249e-40 3.95026e-40 -3.77913e-40 -7.7422555e-05
-6.122929e-10 -5.5409646e-09 -0.01888211 -0.022691067 -0.03711762 -0.057659123 -0.042433772 -0.030775635
-0.049610976 -0.050933804 -0.0416589 -0.021546045 -0.0347229 -0.013949305 -0.03351248 -0.06366771
-0.054145396 -0.000749716 0.012179455 -0.0007675833 0.0010235271 0.00423533 0.003095159 3.69709e-40
-2.17378e-40 -3.9135e-40 3.36406e-40 -1.4258e-41 4.2718332e-07 -0.012222982 -0.027102476 -0.017425654
-0.02560461 -0.052230906 -0.030204877 -0.09133222 -0.17327845 -0.20199062 -0.08942013 0.05406777
0.01748818 -0.10212262 -0.1066545 -0.1533881 -0.10540978 0.010271516 0.021279512 0.0032283715
1.953664e-05 0.000942128 0.0010244835 -4.9394e-41 -1.45005e-40 -3.58054e-40 -1.49743e-40 7.8437196e-10
-0.011416699 -0.04921327 -0.04621135 -0.00819685 0.043201733 -0.01719317 -0.045201387 -0.17397483
-0.20745406 -0.25021857 -0.13768029 -0.19905077 -0.340739 -0.2269536 -0.1484327 -0.25148568
-0.1897079 0.010527857 0.030490203 0.015327991 0.022299433 0.019965429 0.0007416526 1.63092e-40
1.67832e-40 3.6691983e-21 -8.654326e-21 0.0006406822 -0.016148286 -0.056755017 -0.035583805 -0.034048833
0.04394389 0.004971755 -0.11839483 -0.08830009 -0.06500608 -0.13740045 -0.007515947 -0.12719388
-0.15037125 0.11326166 0.0074386066 -0.12198968 0.002803689 0.019939017 0.048732292 0.016310418
0.04266851 0.022013018 -0.002563638 -1.61093e-40 4.03581e-40 0.0015210507 -1.1450348e-12 -0.0017808994
0.0077709663 -0.026772173 -0.040156856 -0.13090806 -0.022440754 0.029356616 -0.03406544 -0.07122538
-0.13259363 -0.11099471 0.017564029 -0.13431808 0.10739483 0.0711342 0.025740068 -0.022113672
-0.024758758 -0.06494512 -0.013501426 -0.114190556 0.047131702 0.007324795 -0.0027039163 3.8139e-41
-0.007964493 0.0014327896 6.877835e-05 -0.014693238 0.009092514 -0.01698368 -0.06907838 -0.12994164
0.071225174 0.022966914 -0.10613508 -0.008906136 -0.14932807 -0.060399245 -0.027937662 -0.070281856
0.07279163 -0.052837294 0.13755228 -0.066329874 -0.24135321 -0.19351906 -0.09616743 -0.077111535
0.0013809826 -0.05588009 -0.0058445046 6.2775e-41 -1.7402572e-16 -0.0005539681 -0.012225426 -0.010321285

fc1.bias f4 [100]
00000000: a17b 183e 58b8 d5be 4008 b83e b739 b93e
00000010: 3032 0d3e 55a6 843c c812 61b5 5bc1 02bf
00000020: 914a b33e 0892 cf3e cd87 d4be 50fc aebe
00000030: 2b4b 09bf 7985 c03a e053 e6be 02f2 d9be
00000040: 3d0f 023c 9753 ff3d 1d59 36be 2bbe 44be
00000050: 003d e7bd 93b9 09be 2d2a d43e 6968 ddbe
00000060: e57c aa95 8a5c a03d 17ef 6d3e 0fc8 ffbe
00000070: a6a6 a93e 8629 d13d 6dbd fbbd a37b e63d
00000080: f512 babb 1713 c1be 177b 7a3c 9668 a4be
00000090: f5c3 d2bc aa37 b3bc 9bcc 29bf 34d4 41bf
000000a0: 4fe8 12be 4914 12bf bbd0 243c 5ff0 403e
000000b0: e060 93be 755b 0fbe 7142 ae3d c54d af3d
000000c0: d464 2dbe 67b9 0a3d bb09 87bc 34b1 56bf
000000d0: ccc9 a2be 1986 243d edbc 0b3e 2aac 093f
000000e0: f49a b53e 4a37 aa3e ff36 c8bd 2fec d7be
000000f0: 28b1 9aad ef8d cc3e 29c6 dcbd 6edb 90be
00000100: c860 bfb9 ba0b c63c cdad 20bf fad1 7c3e
00000110: 92e3 c43c b32d 52a3 dc3c 45ba 2186 05be
00000120: 89c1 8bbd 2ff3 ca3e 1a1d 88bc ab02 97bc
00000130: c2c9 673d c9f1 4cbe 1048 893d ec2a 8fbe
00000140: 24ab d73d 0a7c c03c b2a8 713d 3800 03bf
00000150: b2ae b1be ad4a a2be 53ad 4e8a 8468 acb5
00000160: ed0a b4bd 5e64 b4be 7047 4cbe 744b 063e
00000170: bab1 a03e 0616 1c3e fae3 05be aecb 7c3c
00000180: a21e 97be 9c0c 2bbf 1ca8 f7bb 47d9 22b2
0.1489091 -0.41742206 0.35943794 0.36176845 0.13788676 0.016192595 -8.384636e-07 -0.5107629
0.35017827 0.405411 -0.41509858 -0.34176874 -0.5363032 0.0014688215 -0.44985867 -0.4256745
0.007938203 0.12467115 -0.17807432 -0.19213168 -0.11290932 -0.13449697 0.41438428 -0.4324372
-6.88595e-26 0.078301504 0.23235737 -0.4995732 0.33134955 0.10212998 -0.122919895 0.112540506
-0.0056785294 -0.37709877 0.015288136 -0.32111043 -0.025728205 -0.021877129 -0.6632783 -0.7571442
-0.14346431 -0.570622 0.010059531 0.18841694 -0.28784847 -0.13999732 0.085087664 0.08559755
-0.16932994 0.03386822 -0.016484132 -0.8386414 -0.31794584 0.040166948 0.13646288 0.53778327
0.35469782 0.33245307 -0.09776115 -0.4217238 -1.7586446e-11 0.39952037 -0.107799836 -0.28292412
-0.00036502467 0.024175514 -0.627652 0.24689475 0.024034295 -1.13938e-17 -0.00075240224 -0.13039447
-0.06824023 0.3963866 -0.01661544 -0.01843389 0.056588896 -0.20014109 0.06703198 -0.27962434
0.10530689 0.023496646 0.05899877 -0.5117221 -0.34703594 -0.31697598 -9.951138e-33 -1.2845417e-06
-0.087911464 -0.35232824 -0.19949126 0.1311472 0.31385595 0.15242776 -0.13075247 0.01542942
-0.29515558 -0.66816115 -0.007557882 -9.479044e-09

fc2.weight f4 [100, 100]
00000000: 5db1 47bd 4c23 0b3d fb2e dabd 960e 01be
00000010: 7e6b 53be 5ffc 993c 1312 d9b7 8a7c 143e
00000020: 09e6 47be 320d f73e 16e2 7a3e 8007 85bd
00000030: 4623 303d 51b9 babc 9b4d 1abd e6e7 4cbe
00000040: 4f5b 8a3d 8cb4 7d3d 87c1 fcbd 1df4 9abe
00000050: 2ae1 233d 7a80 44ba 835c aa3d 8043 db3c
00000060: 7b19 8aa3 6389 09be e531 1dbe ea7f ec3d
00000070: b7cb e7bd bcd8 9cbd f3f8 ffbd acd4 553e
00000080: 1d68 92bc 9683 69be 777f 96bd 961a 24be
00000090: 8c48 01bc fac6 b2bd 7794 a93c f804 83be
000000a0: e74b 5cbd fcd9 e53d 05d2 e63d c04a 4cbe
000000b0: 2960 983e 050b 083e 736d 54be 935c 90be
000000c0: 0258 01bd 2cd7 4b3d 7f2e 1c3b 6ea0 933e
000000d0: 7d53 0ebe e31b bcbd 0e5f 81be ff2a b63d
000000e0: daa1 2ebe 52d5 aabc ee44 2f3e 21ae 29be
000000f0: 1c36 da35 9023 64be e5a7 80bc c612 b4bd
00000100: bf99 91bb 838a 533e 9f13 243d a3f7 ea3d
00000110: 98ad 09bd d5e7 282a 9e7c d3bd d0d2 403e
00000120: a1f8 6d3e fa86 54be 164c b5bc 53db 8abe
00000130: 8c11 6bbe 3b18 213e cd65 153e 6983 de3d
00000140: ecaf 3f3d 876a 503c 4a32 79bd 128d 48be
00000150: e775 4c3b 7d1d f8bd 1c9a 3f33 b163 0bb5
00000160: c35d f9bd 877d 92bd a598 d0bd 35e2 fbbd
00000170: 0a8b 453c 4329 7abe 2b63 01bd d285 873d
00000180: a6c7 9bbe 3a59 833d 8551 45bb 4701 c9b5
00000190: 78dd 183b 25b4 c73d 789e f13d edd0 703e
000001a0: 010d 12be 360b aabc 8d3e db39 821d 343e
000001b0: 6f23 e8bd 0f06 2f3e f9e0 d43e b9dc a6be
000001c0: 9841 8a3d 1b68 743c 5739 863e d2d8 ea3c
000001d0: 605c 393e 1764 07be 59c0 90be eaa3 673d
000001e0: 4568 263e 8f64 933e cfaf 02be b687 b53e
000001f0: 3b7a a230 2c30 fabd 9f8c d83e 5668 cd3c
00000200: 6bf6 babd 9819 7cbe cf03 d03c fdfc c33e
00000210: 1f0d 5bba c16a 693e 0f67 373d bbbc 28bd
00000220: a51a 8f3b dfea 043c cce0 e13d 9f5b 02be
00000230: 50f9 6a3e 4f85 143e 1bfc 98bd 058b 513b
00000240: f5b7 06be 2049 be3d 60e2 cb3d 930f c6bd
00000250: 1b48 203d bfe3 f63e e505 e2bc 321c 953d
00000260: a157 933d 46df ad3e 12b8 3e3d fd90 0ebc
00000270: f4b3 6cbd 7344 8ebe 46ce 0f3e a209 163e
00000280: af46 0138 d642 0c3c d8dd ac3c 0ce6 07be
00000290: 247c 5b3a 98c1 933c fab0 c9bd 2acc 043c
000002a0: c173 abbe 4d02 492b ed62 913e 766a 1a3f
000002b0: e6cb 4f3e b944 cdbe b103 3dbd cf28 6abd
000002c0: 8447 273d f56a 98be b33a 973a b33f 1d3e
000002d0: a043 c43c 7ca8 e73e 6dbe 043e ae84 80be
000002e0: dfe7 b1bd 0d0b 1dbe 46f9 5030 cf09 53b8
000002f0: a0e8 893c 0f0a 0cbe 373a dcbd 1c39 f63d
00000300: 06b9 49bd 944e 85bd 10cd 8bbe 248e 33bd
00000310: e5e0 91be e9bf 223b 7753 ba3b f564 872f
00000320: d0ba 803c 9be5 33be 29c3 3a3c be53 86be
00000330: a577 1fbd 7e44 953c e149 9538 52d0 9dbe
00000340: 5382 95bd c995 b6be 83ee a5be c1ab 8c3e
00000350: f5a9 60be 3a0f 46bd 9ce6 fbbd dbc6 e93d
00000360: 9e35 a6bb baab a83e 7089 b8bd 6e69 fa3d
00000370: 73c9 86be a1af 8bbe 2ae2 1ebe a32f 803d
00000380: 86fc 24ab 4d3c ee3e 0c71 40bb c997 0dbd
00000390: 89e7 dbbd 305c 2bbe 6edd 92bd 16ab 7cbe
000003a0: 6e53 803c e0c6 093e 55e2 b63e ddbf 45be
000003b0: ad67 473c 9e1b dc3d 1103 a93b 8409 debd
000003c0: a59b ad3d 8061 a83d dcec aabe 2946 5d3e
000003d0: 4d9a 30bd 7656 0bbb 475d 913e 7b11 bb3e
000003e0: 14b0 e1bd abd1 ffbd a659 4f3c 599f b4be
000003f0: 61c7 57bc 1f37 73be f62b 95bd d416 b13d
-0.04875313 0.03396921 -0.10653492 -0.1260322 -0.20646474 0.018797098 -2.5876832e-05 0.14500633
-0.19521345 0.48252255 0.24500307 -0.06495571 0.04300239 -0.022793444 -0.037671667 -0.20010337
0.06755697 0.06193976 -0.123416 -0.3026437 0.040009655 -0.0007495951 0.083184265 0.026765585
-1.4972781e-17 -0.13431315 -0.15351065 0.11547835 -0.113181524 -0.07658526 -0.12498655 0.20881909
-0.01787191 -0.22804102 -0.07348531 -0.16025767 -0.007890832 -0.08729358 0.020700676 -0.25589728
-0.053783324 0.11223218 0.11270527 -0.1995039 0.29760864 0.13285454 -0.20744877 -0.2819563
-0.03157807 0.04976575 0.0023831425 0.28833336 -0.13899036 -0.091850065 -0.25267833 0.088949196
-0.17053929 -0.020853672 0.17116138 -0.16570331 1.6258014e-06 -0.22279191 -0.015705058 -0.08792643
-0.004443377 0.20658307 0.040057775 0.11473014 -0.033612818 1.500183e-13 -0.10326503 0.18830419
0.23239376 -0.20754614 -0.022131007 -0.27120456 -0.22955912 0.157319 0.14589615 0.10864908
0.04679863 0.012720711 -0.060838975 -0.19585064 0.0031198205 -0.121149994 4.4610815e-08 -5.1926605e-07
-0.12176087 -0.07152849 -0.10185365 -0.12299005 0.012057075 -0.24429803 -0.031588715 0.06617321
-0.30425757 0.06413503 -0.0030108404 -1.4976039e-06 0.0023325365 0.09751157 0.11797804 0.23517199
-0.14262773 -0.020757299 0.0004181754 0.17589381 -0.113348834 0.17092155 0.4157789 -0.32590273
0.06750792 0.014917399 0.26215622 0.028667841 0.18101645 -0.13221775 -0.2827175 0.056552805
0.16250713 0.28787658 -0.12762378 0.35455102 1.1821791e-09 -0.12216219 0.42294785 0.025074165
-0.09129032 -0.24619138 0.025392441 0.38278952 -0.0008356142 0.2279463 0.04477602 -0.041195612
0.00436719 0.008112638 0.11029205 -0.12730263 0.22946668 0.14503978 -0.0746996 0.0031973731
-0.13156112 0.09291291 0.09955287 -0.09670939 0.039131265 0.4822063 -0.027590701 0.072807685
0.07194448 0.33959407 0.046562262 -0.00870156 -0.057788804 -0.27786598 0.14043531 0.14652112
3.0821826e-05 0.008560857 0.021101877 -0.1327135 0.00083726854 0.018036649 -0.09848209 0.008105317
-0.3348675 7.141274e-13 0.28395787 0.60318696 0.20292625 -0.40091494 -0.0461461 -0.057167824
0.040839687 -0.29769102 0.001153788 0.1535633 0.023958027 0.4524573 0.12963267 -0.25101227
-0.08686804 -0.15336247 7.60242e-10 -5.0315455e-05 0.016834557 -0.13675712 -0.10753291 0.120226115
-0.049248718 -0.06509128 -0.27304888 -0.043836728 -0.28491893 0.0024833626 0.0056862193 2.462809e-10
0.01571408 -0.17568056 0.011399069 -0.26235765 -0.03893246 0.018221136 7.118635e-05 -0.30822998
-0.07300248 -0.35661152 -0.32408533 0.27474788 -0.21939833 -0.048354365 -0.122998446 0.11414882
-0.0050723096 0.32943517 -0.09010589 0.1222714 -0.2632557 -0.27282432 -0.15515962 0.06259086
-5.861495e-13 0.4653038 -0.0029364256 -0.03456858 -0.10737521 -0.16734385 -0.071711406 -0.24674639
0.015664782 0.13454771 0.35719553 -0.19311471 0.012170714 0.10747455 0.0051578362 -0.10841659
0.084769525 0.08221722 -0.33383834 0.21608795 -0.043115903 -0.0021261252 0.28391477 0.36536774
-0.11019912 -0.12491163 0.012655651 -0.35277823 -0.013170094 -0.23751496 -0.072837755 0.08646932

fc2.bias f4 [100]
00000000: 42ef bdbd 946d eebe 98c8 683d 2a81 c2bc
00000010: dae4 ddbc 7f49 a43e f2fa 0fbc b246 833e
00000020: 1278 85bc 9a5d 2d3e 6d82 b83e 78a2 3b3e
00000030: ca1f 783f 2d00 173e c319 463d 611a 24be
00000040: ff3e 8cbe 9b7d 443f dbf2 32be b83a ef3c
00000050: 03a2 393d 498d 943e 6de2 9c3d 9847 cfbe
00000060: 5e28 3b3f d84b 3e3e f6f5 153f 329d fe3e
00000070: 58bc 55be e1ae f0bc 81e2 eebd 4696 b63e
00000080: 0476 033e a95b 51bd a00b 4b3f 767e 80bd
00000090: a3ed 9f3e 49b1 253e b316 15bf 0517 5dbd
000000a0: 6a21 8d3e b383 62be dce9 de3e 7ab9 f8bd
000000b0: 2e10 5abc f14c 5f3e ed4a 6abe 2e4a f73e
000000c0: 068a 103e 536b a43b 01db b93e 71d9 5a3e
000000d0: 114e 8fbe 1328 a2bd 074d 96be e45b 4bbe
000000e0: dd71 403d b00e d2be 2008 9d3f a5bd 02bc
000000f0: ddb0 003e 1820 5d3e 6dc7 b1bd 81bd d23e
00000100: 9f58 4a3f d417 2e3f be34 7dbe a8c9 63be
00000110: 3761 69be 5c7c 8dbe 870a 183e 8a80 753c
00000120: e976 2bbd 8412 a43c c67a 03bd 3473 b93d
00000130: 6869 d1be 4b94 28be f108 5c3b 0a8e 193f
00000140: eb24 a9be 3e57 863a 3569 7b3c f6a5 9e3f
00000150: 42f8 3f3e fdc9 84be 14c8 d1be 2509 c73e
00000160: 8118 81be 9427 dbbe b7a3 2c3e 9204 84bc
00000170: b905 f4bc 5422 993f 3fcb 25be 944b d9be
00000180: c337 5a3f aba1 8e3e 1925 ad3e c8e6 0abf
-0.092741504 -0.46567976 0.056831926 -0.02374323 -0.027086664 0.32087323 -0.008787857 0.25639874
-0.016292606 0.16930237 0.36037007 0.18323696 0.96923506 0.14746161 0.048364412 -0.16025688
-0.27391812 0.7675416 -0.17475455 0.029202804 0.045320522 0.29014042 0.07660375 -0.4048431
0.7310847 0.1858362 0.5857843 0.49729306 -0.20872629 -0.029380264 -0.11664296 0.35661525
0.12837988 -0.051112805 0.79314613 -0.062741205 0.3123599 0.1618091 -0.5823776 -0.05397703
0.27564555 -0.22120552 0.43537796 -0.12144752 -0.013309522 0.21806695 -0.22880144 0.48298782
0.14115152 0.005017677 0.362999 0.2137201 -0.27989247 -0.079178 -0.29355642 -0.19859272
0.04698359 -0.4102683 1.2268105 -0.007979785 0.12567468 0.21594274 -0.086806156 0.41160205
0.79041475 0.6800511 -0.24727151 -0.22244895 -0.22790991 -0.2763394 0.14847766 0.014984259
-0.04186145 0.02002836 -0.032099508 0.090551764 -0.4090073 -0.1646282 0.0033574665 0.5998236
-0.3303598 0.0010249389 0.0153449075 1.2394397 0.18747047 -0.25935355 -0.4097296 0.38874164
-0.25214007 -0.42803633 0.16859327 -0.01611546 -0.029787885 1.1963601 -0.16190813 -0.42440474
0.85241336 0.27857718 0.33817366 -0.54258394

fc3.weight f4 [10, 100]
00000000: 7a0c b0be 6135 e9be 9f43 93bd ac5a 9f3e
00000010: 7c61 1dbd 8f9c 1e3e 5a10 09be fc2d 80be
00000020: 3747 b8be 286d 533e 20b2 683e 7da9 a53e
00000030: 845b 12bd be4c 903d 61d8 2ebe 463e 06be
00000040: 93f6 17bd a4ea 1a3e f21b 55be 2b43 a73e
00000050: 6dcd fabe b96c 4bbe 64eb 9fbe 9cf8 1a3e
00000060: 9cbd 9e3e 5545 02be 0dba dabd a710 28be
00000070: 8344 373e 80bf 883e d183 2bbe 6570 9f3d
00000080: 8894 02be b37b 823e c2c4 a33d f005 923d
00000090: 9955 2a3e 379b a53e 6adc b03c d280 57be
000000a0: 88d9 25be 9020 763e 44e7 35be 1671 b6bd
000000b0: e2a4 64bd 27ef bf3d a707 5bbd 27bc 813d
000000c0: beb6 89be 7c5e 2bbd 74e9 6a3e 2848 c5be
000000d0: 235b 05be b4a7 d5bd 8748 afbe 1eda 44be
000000e0: 220e b23d ab0f 39be c216 213e 2da9 51be
000000f0: 56de 84be 894b 373e d8ef e7bc fe8a 67be
00000100: 8ce6 373e 2c3a c4be c853 05be 8899 eebc
00000110: dd60 03be 06ca c9bd baee 053e b9c8 7dba
00000120: 3a6e 21be 1a63 17be 1fce 43be e6bb e23c
00000130: 9dfe 183d 01c8 273d d9ba 323e 6b8c 5bbe
00000140: f0a2 2cbe 015d 1e3e e359 a8bd 2cb9 853e
00000150: 92b6 2b3e a861 123e 9445 73be 66f1 803d
00000160: b175 adbd 8555 cfbe 78f8 02be 45a7 6c3e
00000170: c9f2 36be fc06 55bc ffdb 19be e505 8f3c
00000180: 5033 bfbd 2dfa a1be 61a6 bbbd 5a62 9fbe
00000190: e402 013d 6187 0c3e 78e6 c2bb 4dbb b0bd
000001a0: dec4 0abe 43d6 c33e f6dd c6be d7b1 2fbe
000001b0: f621 5e3e 859c 0dbe e23e 85be 9b20 eb3c
000001c0: 7dc3 36be 1c27 acbd bf90 7cbe 85b9 5dbe
000001d0: 3077 94be 99b6 b1be 91dd 233e 5cdd c9bc
000001e0: 103c 5ebe 8355 0cbe f66a a6be cc13 92be
000001f0: 5a8c ba3b 3de6 273e 54de 6dbe cb10 a93e
00000200: 3b2c 7abe 8bc4 4bbe 6906 8ebd 1e8a 263e
00000210: 0c0a 5bbd ed24 afbe 4dc2 84be 18ff a0be
00000220: 6184 a1be 8e52 acbd 11a5 fa3b e870 643e
00000230: 4f81 a73e df34 27be 07f2 4e3e 5109 4ebd
00000240: 9763 013e be31 6f3e 3af6 5d3e f64c b1be
00000250: 95ab 4a3e a350 9cbd b5ab 233d be1d a3be
00000260: b822 b63b 82cc 9a3e 41d8 303e f734 9c3e
00000270: ee9f 85be 08d7 8d3e 281b bc3e b34b 2ebe
00000280: 96b0 d6bb cc73 a1be 143a 82be 094c 9bbd
00000290: a5e3 bfbe 6b8b c93d 8654 66bd 6d76 4dbe
000002a0: 94aa cfbc 9024 a1bd ae57 fabe b426 adbd
000002b0: 3929 433e 3f6f 313e 19f1 a83e 3043 81be
000002c0: 5bbd 34be 8462 9bbe 5d9f 43bd 1b3f afbe
000002d0: 0fc3 2fbe 2452 d03e 7a8e 59be 1bf8 bd3e
000002e0: cd4e 94be 3237 58be eba7 163e 30ca c2be
000002f0: ea96 8abe 6b1c 023d 37e5 54bd 76f4 b53e
00000300: a0d0 40bd 94ca c43d 55ae 77be f52b 833e
00000310: 20d5 79be 9f84 353d 098e 22be fecf 673e
00000320: d8b9 3f3e 6904 1f3e fcd1 26be 1b17 f03d
00000330: 1040 3c3e 9f1e 04be b86e 21be 2719 8d3e
00000340: 4331 503e 3165 50be 4607 483e 258c 9ebd
00000350: cc97 04be c86c 053e bb91 56bd f0f6 71be
00000360: a06a 3ebe 904c b43c d216 393d edd2 e2bd
00000370: 7924 8abe a683 3a3e b06c e9bd 0705 3e3e
00000380: 2ca7 33be 8f73 b5bc 3cbf 30be c459 87be
00000390: 1dff 53be 177f 54be d615 a5bc b1ea 83be
000003a0: 241b 45be ade3 543e 3f65 763e c8ba f73d
000003b0: 17b0 a5be 2027 653e 5165 713e 10f3 babd
000003c0: d512 5dbe 2c68 2c3e f987 3cbe 665e b4bd
000003d0: fda2 9a3d d5c0 bbbd a4bb 383e bdca 64be
000003e0: 08ab 8abe 86b7 b7bc dc17 1bbe e6c1 9b3d
000003f0: 1989 463e e8f7 82be 500f 94be 617c 393e
-0.3438452 -0.45548537 -0.07190632 0.31123865 -0.038423046 0.1548941 -0.13385144 -0.25035083
-0.35991833 0.20647109 0.227242 0.32355872 -0.035731807 0.070458874 -0.1707473 -0.13109693
-0.037100386 0.15128571 -0.20811442 0.32668433 -0.48984852 -0.19865693 -0.31234276 0.151339
0.31004035 -0.1272176 -0.106800176 -0.16412602 0.17897229 0.26708603 -0.16749503 0.077851094
-0.12751973 0.25485 0.07996513 0.07130039 0.16634215 0.32344982 0.021589477 -0.21045235
-0.16196263 0.24035859 -0.17764002 -0.08908288 -0.055821307 0.093717866 -0.053474095 0.06334715
-0.26897234 -0.041838154 0.22940618 -0.38531613 -0.13023047 -0.104323775 -0.3423502 -0.1922383
0.08694102 -0.18072383 0.15731338 -0.20474692 -0.2595088 0.17899908 -0.028312609 -0.22611615
0.1795904 -0.38325632 -0.13020241 -0.029125944 -0.12829919 -0.09852986 0.13079348 -0.0009681094
-0.15764704 -0.14783898 -0.19121598 0.027677488 0.037352193 0.040962223 0.17454089 -0.21440284
-0.1685903 0.15465166 -0.082202695 0.26117837 0.16768864 0.14295065 -0.2375701 0.06296043
-0.084697135 -0.40494934 -0.12790096 0.23110683 -0.17866053 -0.0130021535 -0.15025328 0.017458865
-0.09335959 -0.3163618 -0.09162594 -0.31129724 0.031496897 0.13723518 -0.005947884 -0.08629475
-0.13551661 0.38249406 -0.38841218 -0.17157684 0.21692643 -0.13829239 -0.26024538 0.028702071
-0.1784801 -0.08405897 -0.24664591 -0.21652801 -0.28997183 -0.34709623 0.1600249 -0.024641685
-0.217026 -0.13704495 -0.3250348 -0.2853073 0.0056930007 0.16396423 -0.23229343 0.33020625
-0.24430935 -0.19899194 -0.069348164 0.16263625 -0.05347638 -0.3420786 -0.2592949 -0.3144462
-0.3154631 -0.084141836 0.007649072 0.22308695 0.32715842 -0.16328762 0.20209514 -0.050301854
0.12635647 0.23358819 0.21675959 -0.3462903 0.19792016 -0.07632568 0.039958674 -0.3185863
0.005558338 0.30234152 0.17269994 0.3050916 -0.2609858 0.27703118 0.3673947 -0.17021064
-0.0065518124 -0.31533659 -0.25434935 -0.07582862 -0.37478366 0.09841045 -0.05623295 -0.20064707
-0.025349893 -0.07868302 -0.4889502 -0.08454648 0.19058694 0.17327593 0.32996443 -0.25246572
-0.17650358 -0.303486 -0.047759403 -0.34227833 -0.17164253 0.40687668 -0.21245757 0.37103352
-0.2896637 -0.21114805 0.14712493 -0.38044882 -0.27068263 0.031765383 -0.05197641 0.3553807
-0.04707396 0.09608951 -0.24187596 0.25619474 -0.24397707 0.04431593 -0.15874495 0.22637936
0.18723238 0.15529026 -0.1629104 0.11723157 0.18383813 -0.12902306 -0.15764892 0.27558252
0.20331292 -0.20351101 0.19534025 -0.07741574 -0.12948531 0.13029778 -0.052385073 -0.23629355
-0.18595362 0.022009164 0.04518778 -0.11075387 -0.2698095 0.18214282 -0.113976836 0.18556605
-0.1754424 -0.02214983 -0.1726045 -0.26435673 -0.20702787 -0.20751606 -0.020152014 -0.25764993
-0.19248635 0.20789976 0.2406206 0.120961726 -0.32360908 0.22378206 0.23573805 -0.09128392
-0.21589215 0.16836613 -0.18411244 -0.088070676 0.07550619 -0.09167639 0.18040329 -0.22342964
-0.2708361 -0.022426378 -0.1514582 0.076053426 0.19388236 -0.25579762 -0.28917933 0.18113853

fc3.bias f4 [10]
00000000: e4ad c8be f295 d3be 2b80 923e 6c2a a2be
00000010: 066b 463c 83e9 133e 2153 9ebe 1f99 c4be
00000020: 0439 3f3f 4df2 6b3e
-0.39195168 -0.41325337 0.2861341 -0.3167299 0.012110477 0.14444546 -0.30922797 -0.38398072
0.74696374 0.23041649
