Arafat_WS/MLP-100/saved/trained_mlp100-97.91p.pt (torch, 360783 bytes, 6 tensors)

fc1.weight f4 [100, 784]
000000 a5 41 03 00 2e 29 01 80 1d 2f 03 80 e7 9f 03 00
       2.99055e-40 -1.06608e-40 -2.92408e-40 3.32869e-40
000010 0e 3c 04 80 f8 d1 04 80 45 c7 01 80 0a f2 03 80
       -3.88886e-40 -4.42665e-40 -1.6332e-40 -3.62334e-40
000020 6c 0d 01 00 8e 86 02 80 5b 60 03 80 69 fd 03 00
       9.665e-41 -2.3194e-40 -3.10072e-40 3.66413e-40
000030 bf 3e c5 bc 52 5c e5 bc 9a 92 02 00 4e 0e 01 80
       -0.024077771 -0.027998123 2.36262e-40 -9.6967e-41
000040 20 19 02 00 c8 b7 03 80 27 8f 02 80 b8 cd 04 80
       1.92684e-40 -3.41435e-40 -2.35024e-40 -4.4114e-40
000050 5a d1 01 80 6e f0 03 80 09 cd 02 80 9b a0 00 80
       -1.66937e-40 -3.61756e-40 -2.57224e-40 -5.7614e-41
000060 c3 92 04 00 c0 9e 05 00 25 73 02 00 63 37 05 80
       4.1999e-40 5.16126e-40 2.24977e-40 -4.79046e-40
000070 da 37 06 00 2a d4 00 80 99 5a 05 00 ba 72 03 00
       5.71049e-40 -7.611e-41 4.91678e-40 3.16663e-40
000080 85 5d 03 00 01 8d 00 80 27 58 c1 86 ab 72 b0 b5
       3.09055e-40 -5.0583e-41 -7.272806e-35 -1.3146395e-06
000090 3d 32 9b bb 4d c6 1b b9 ee b7 88 b7 71 a8 03 ba
       -0.0047362135 -0.00014855825 -1.6298112e-05 -0.0005022353
0000a0 0d 14 dd bc f4 df e5 bc 40 af e0 3c 06 e8 8d ba
       -0.0269871 -0.02806089 0.027427316 -0.0010826595
0000b0 31 38 7d ba 56 75 35 37 3e 09 02 80 ab 6f 01 00
       -0.0009659557 1.081576e-05 -1.86986e-40 1.31894e-40
0000c0 a3 30 01 00 c9 ed 00 80 7e d8 02 80 74 a5 04 00
       1.09283e-40 -8.5301e-41 -2.61334e-40 4.26695e-40
0000d0 45 db 00 80 2f fb 00 80 2f 5a 02 80 d1 c9 04 00
       -7.8659e-41 -9.0108e-41 -2.16023e-40 4.3974e-40
0000e0 da 0c 05 80 e7 e3 01 80 24 e9 02 80 45 f1 05 00
       -4.63788e-40 -1.73591e-40 -2.67306e-40 5.45729e-40
0000f0 f3 3b 04 80 a1 74 00 80 e4 74 00 00 9d 04 b1 b7
       -3.88848e-40 -4.1839e-41 4.1932e-41 -2.1102192e-05
000100 df 49 b8 bb 35 66 76 bb e1 57 b3 bb b0 3e f4 bc
       -0.0056240405 -0.0037597541 -0.0054731225 -0.029815048
000110 48 92 6f bd cf b0 fa 3b 3b 96 1e 3d 80 87 c1 3c
       -0.058489114 0.0076504718 0.03871749 0.023624182
000120 fc 82 9d bc 55 7d 89 bc 90 48 c1 bb 58 65 d1 b2
       -0.019227497 -0.016783396 -0.0058985427 -2.4376888e-08
000130 4c fb af a2 53 a9 9d 23 fc 3d ba a4 28 d2 00 00
       -4.7699916e-18 1.7093686e-17 -8.076965e-17 7.539e-41
000140 ff ba 01 00 06 52 00 00 00 4c 04 80 9a 87 05 80
       1.58917e-40 2.9424e-41 -3.94606e-40 -5.07822e-40
000150 08 41 03 80 23 04 06 80 eb ef 01 80 c4 e4 05 80
       -2.98835e-40 -5.52497e-40 -1.77902e-40 -5.41243e-40
000160 62 e4 86 35 a9 65 ce b5 2f 63 a6 bc 5d 2e 8a bc
       1.0050246e-06 -1.5377783e-06 -0.020310966 -0.01686781
000170 53 ec 91 bc 2e ba 51 bc c6 1a 52 bc a7 6d 2e bd
       -0.017812883 -0.012800736 -0.012823766 -0.04258504
000180 17 cb 03 bd 38 5c 6d 3c c7 14 5c 3c 2e ce 8d bc
       -0.032176103 0.014487319 0.013432688 -0.017310228
000190 c5 cb cb bc 14 18 c3 bc 7e 96 1c bc 2b f5 24 ba
       -0.024877438 -0.023815192 -0.0095573645 -0.00062926364
0001a0 ae 2d e5 b7 f7 e0 8d b9 6d ed 72 b8 b5 10 00 00
       -2.7320199e-05 -0.00027061228 -5.7918416e-05 5.993e-42
0001b0 cc f1 00 80 46 31 00 80 9c b2 05 80 ee 97 02 80
       -8.674e-41 -1.7676e-41 -5.2325e-40 -2.38173e-40
0001c0 47 9e 02 00 b2 87 06 80 56 f8 00 00 c9 96 01 80
       2.4045e-40 -5.99691e-40 8.9086e-41 -1.45927e-40
0001d0 db d6 dc ae 15 27 5e bc ef 70 2c bd 7f 20 e7 bc
       -1.0042608e-10 -0.013559123 -0.04209989 -0.028213738
0001e0 92 69 16 bd b9 e6 04 bd d5 ab 1f bd 55 66 f4 bc
       -0.036721773 -0.032446597 -0.03898223 -0.029833952
0001f0 a2 87 3f 3d 2a 19 5e 3c d8 54 14 bd 71 10 22 bd
       0.04676021 0.013555804 -0.036213726 -0.03956646
000200 ba 40 02 be a6 4d 6e bd 77 e6 53 bd a1 79 44 bd
       -0.12720004 -0.05817952 -0.05173346 -0.047967557
000210 b7 d5 ad bb 9c e9 8e bb 17 61 18 bb 95 ca 78 3a
       -0.005305018 -0.0043613445 -0.002325123 0.00094906363
000220 84 af 03 29 3a 66 87 27 84 3a 05 00 65 a2 04 00
       2.924008e-14 3.758086e-15 4.80169e-40 4.25598e-40
000230 44 ec 05 00 8c 0d 02 00 1a 8f 02 00 a0 25 6b 11
       5.43934e-40 1.8853e-40 2.35006e-40 1.8549825e-28
000240 24 18 2b bc bc 56 60 ba 48 14 7d 3c cd da 6b 3c
       -0.010442767 -0.00085578463 0.01544673 0.014395428
000250 23 da f2 3c 7f f5 8e bb 46 c4 cb bd dc 7f 0f bd
       0.029645031 -0.0043627615 -0.099495456 -0.035034046
000260 aa 95 03 bd a4 a0 ba 3d 32 ec 1a 3c 10 38 54 3d
       -0.032125153 0.09112671 0.009455727 0.051811278
000270 f7 bf e3 bd 41 d7 37 be e6 18 14 be 89 06 6c bd
       -0.11120599 -0.17953207 -0.14462623 -0.05762342
000280 fa 0c 0d bd 84 2b 07 bd 74 dc 1b 3b 26 c3 ca 3b
       -0.034436204 -0.033000484 0.0023782523 0.0061878143
000290 87 fa 54 34 60 37 c2 b0 e0 71 01 80 95 f1 01 80
       1.983518e-07 -1.4131096e-09 -1.32686e-40 -1.78499e-40
0002a0 0b e0 05 80 97 b7 00 80 08 83 32 3c 3d ca 03 3d
       -5.39549e-40 -6.586e-41 0.010895498 0.03217529
0002b0 79 c1 a5 3c 52 cf 0b bc c1 f7 4d bc 98 68 44 bd
       0.020233857 -0.008533316 -0.012571276 -0.04795131
0002c0 3b b9 a0 3a ef 73 2e 3d ed f1 0d 3e 8d 46 d0 3d
       0.0012262234 0.04259103 0.13861819 0.101697065
0002d0 e0 1f 18 3e de 6c 68 3e 5b e9 7f 3e 01 1f 9e 3d
       0.1485591 0.2269778 0.24991362 0.07720757
0002e0 62 44 ad 3d 00 03 aa 3d c1 5f 88 bd ac b9 1e bd
       0.084603086 0.083013535 -0.066588886 -0.03875129
0002f0 ce a3 39 bd 31 23 99 bd 03 f3 84 bd 36 f5 a7 bd
       -0.045322232 -0.07477415 -0.06491663 -0.08201067
000300 c0 6c 42 bc f1 10 05 b5 1a e4 02 80 29 10 06 80
       -0.011866748 -4.9571014e-07 -2.65498e-40 -5.5681e-40
000310 30 b5 50 a0 c4 47 e9 30 90 48 b3 3c a6 a2 20 3d
       -1.7678235e-19 1.6973378e-09 0.021885186 0.039217614
000320 f7 9c 6b 3c 2d a6 b9 bd e3 64 ae 3d 36 bc ec bb
       0.014380685 -0.09064899 0.08515336 -0.007224585
000330 9e 98 a5 3d db 8c 7a 3e a5 45 4d 3e 8b 31 fe 3d
       0.0808575 0.24467795 0.20046099 0.12411793
000340 a4 b4 9f 3e 2a f6 9e 3e 30 fc 87 3e 48 68 be 3d
       0.31192505 0.31047183 0.2655959 0.09297234
000350 88 7b ad bd 26 bb 8f bd 6b 82 92 bd 45 ee a4 bd
       -0.08470827 -0.070181176 -0.071537815 -0.08053259
000360 59 44 b5 bd 22 70 16 be a7 4d 50 be 6e 8c ea bd
       -0.08850927 -0.14691213 -0.20342122 -0.11452566
000370 96 0a 28 3c a8 f3 cb b6 0c dc 81 00 7a cd 01 00
       0.01025643 -6.0782368e-06 1.1925717e-38 1.65547e-40
000380 ef 24 13 22 d1 f9 08 35 77 38 99 3a bd d0 06 3d
       1.9941767e-18 5.102748e-07 0.0011689801 0.032913912
000390 de 8c 94 3d 26 e0 37 bb f7 bb d5 3c 7b c4 81 bd
       0.07253431 -0.0028057187 0.026090605 -0.06336304
0003a0 5c c8 40 3e d9 11 e2 3d fa 43 97 3c 35 d5 32 3e
       0.18826431 0.110385604 0.018465031 0.17464145
0003b0 d5 d1 69 3e 4e 02 0f be 9c d7 85 3e 51 a8 1d 3e
       0.22833951 -0.13965723 0.2614106 0.15396239
0003c0 5e 67 96 bd bf 1e 42 bd 7a f6 45 3d e7 dd 92 ba
       -0.073439345 -0.047392603 0.04833076 -0.0011205048
0003d0 c7 99 60 be ac 5b 2b be d7 dd 0d be 2d 4d 51 bd
       -0.21933661 -0.16734189 -0.13854156 -0.05109899
0003e0 1e b9 32 3d cf e1 07 3c 1e 9e 63 b9 1d a5 03 00
       0.043633573 0.008293583 -0.0002170731 3.34738e-40
0003f0 77 c9 ac b5 be 73 cf 36 ff a4 33 3b fc c9 74 3d
       -1.2873633e-06 6.182555e-06 0.0027411578 0.05976294

fc1.bias f4 [100]
000000 14 2e 8c be 08 f5 1e b3 39 98 d0 be 80 0c 34 bd
       -0.27378905 -3.7010096e-08 -0.40741137 -0.043957233
000010 ca 38 d5 b3 59 d4 62 b9 d4 dd c5 ac 15 46 26 bb
       -9.928915e-08 -0.00021632145 -5.6237046e-12 -0.0025371362
000020 af 02 07 bf a4 6d fd be a5 2f d8 be b6 e3 d6 be
       -0.5273847 -0.49497712 -0.4222385 -0.41970605
000030 e3 0a 2d b6 1f d8 c7 bd ee 3e 42 be 46 86 37 be
       -2.5785346e-06 -0.09758019 -0.18969318 -0.17922315
000040 d2 6e 85 3e 69 97 9d b4 aa 8d d5 3e 80 29 47 be
       0.26061112 -2.9353694e-07 0.41709644 -0.19449425
000050 77 bb 23 3d 2a 78 d3 be e8 e7 dc 3c e6 71 02 bf
       0.039973702 -0.41302615 0.02696605 -0.50955045
000060 9b 90 fc bd 32 b1 7e 3e ba 7a f1 3c 20 47 e7 9c
       -0.12332269 0.24872282 0.029477466 -1.5304683e-21
000070 5e 63 6f 3e d9 7c e8 94 06 74 db 3e 28 26 d1 be
       0.2337775 -2.3475257e-26 0.42861956 -0.40849423
000080 12 98 0f bf 80 cc 00 3f a4 7f 54 bf a8 4b 60 b4
       -0.56091416 0.5031204 -0.83007264 -2.0889149e-07
000090 8d 99 fa 3d 8d eb ae 3e 01 fa 41 3e 0c a5 66 bc
       0.12236319 0.34164086 0.18943025 -0.014077436
0000a0 de ad 03 bf 62 92 69 a0 fc 1e 69 3d 7c 3b 54 bf
       -0.51437175 -1.9784302e-19 0.056914315 -0.82903266
0000b0 ed 88 8f 3d 05 66 79 3e af 80 3a 3e e6 e4 b7 be
       0.070085384 0.24355324 0.18213151 -0.35916823
0000c0 22 fe 9d 3d 52 d8 b8 bb 53 88 64 3d c4 d9 dc bb
       0.077144876 -0.0056410218 0.05579407 -0.006739827
0000d0 2c 7e c9 be 66 1b d5 bc 93 91 5b bc 30 c8 85 bc
       -0.39354074 -0.026014041 -0.013401407 -0.016330808
0000e0 04 56 25 be ff 07 3a 3d da 3e 97 b5 64 22 2b 3c
       -0.16146094 0.045417782 -1.1268669e-06 0.010445211
0000f0 db f2 8a be c3 55 50 be 00 78 9d bc 8c 9d 47 3e
       -0.2713841 -0.20345215 -0.01922226 0.19493693
000100 a9 9d f7 bc 85 b3 99 3d 32 c4 b1 be 89 7a 44 b6
       -0.030226545 0.07504944 -0.34719998 -2.92776e-06
000110 49 d5 23 bc 45 42 df bd ec 3d 8b bc 42 38 c3 3e
       -0.009999582 -0.10901312 -0.0169973 0.3812886
000120 78 6e de bd eb b5 bf bd 46 15 fa 3e 9f 1d 10 be
       -0.10860914 -0.0936087 0.48844355 -0.140738
000130 e1 9c 07 bf c9 3a dc 3d 42 56 6d 3e 64 4c 59 bc
       -0.52973753 0.107534 0.23177436 -0.013262842
000140 2f 7b 86 3d 0f 89 c1 bb 35 10 47 bf 72 68 5d be
       0.06566464 -0.0059062312 -0.77759105 -0.21621874
000150 83 7d f5 bd 90 38 ff 3e 31 53 8e a8 c8 d5 0e bd
       -0.1198683 0.4984784 -1.5801245e-14 -0.034871846
000160 d9 a8 85 bf 9c f8 64 bf d7 b2 da ab f5 0b 14 b1
       -1.0442153 -0.8944185 -1.553947e-12 -2.1543631e-09
000170 09 a3 00 bf fe 1c 50 bf cb b4 32 be d8 01 5e b7
       -0.5024877 -0.8129424 -0.1745178 -1.323266e-05
000180 22 3a b8 bc 52 bb 04 bd 62 bc 69 3e 4c 17 dd 3e
       -0.022488657 -0.032405205 0.22825769 0.43181837

fc2.weight f4 [100, 100]
000000 e1 7e c7 bd 2f 2f e5 3e 41 d3 41 3e a6 8b 3b 3e
       -0.09740997 0.4476256 0.18928243 0.1831499
000010 a1 2c c1 3e 39 72 fb bc c3 04 17 bd 91 6c 1a 3f
       0.37729362 -0.030694114 -0.036869776 0.6032191
000020 5d 1e b7 3e 08 86 3d bd 1a 89 81 be 5e 85 43 3e
       0.35765353 -0.0462704 -0.25299913 0.19093844
000030 72 b3 14 bd e3 85 88 3e 85 4e 4b be 38 38 89 be
       -0.036303945 0.26664647 -0.19854172 -0.26800704
000040 ad af d1 3d 18 e9 f6 3c 23 3b 04 be 99 b6 0a 3e
       0.102385856 0.030140445 -0.12913184 0.13546218
000050 ae 19 d1 3c 60 1a cc 3e 93 30 b1 3d ca ad 2e bd
       0.02552494 0.39863873 0.08651843 -0.042646207
000060 d6 2c 0e be f3 19 8f be c4 cc e4 3e 2b 5c ba 3e
       -0.13884291 -0.27949485 0.44687474 0.36398444
000070 e2 85 a6 3e 7a a4 f8 3e 79 f3 f0 bc c7 18 71 be
       0.3252402 0.48562986 -0.029412972 -0.23544608
000080 55 7e 60 be fc 4c af bd 95 62 36 bb 8e 3e 97 3e
       -0.21923192 -0.085596055 -0.0027829756 0.29539913
000090 ef a8 0e be dc 38 2a be 3e 0d f4 bd 71 3a ba bd
       -0.1393163 -0.16623253 -0.11916588 -0.09093178
0000a0 e0 ad b2 be 87 d1 47 bc ae 88 06 be 51 a2 b8 bc
       -0.3489828 -0.012195951 -0.13138077 -0.022538336
0000b0 7e cd c0 bd 5e 3e 79 3e ea f7 d1 3b 5b 04 58 3d
       -0.094141945 0.24340197 0.0064077275 0.05273853
0000c0 f6 26 1e be 2a 34 68 bd 25 c4 26 be fe 6a 88 3d
       -0.1544455 -0.056690373 -0.1628576 0.06661032
0000d0 bb c1 14 be d2 0c ae be a4 3d 81 3e f5 0a 51 3b
       -0.14527027 -0.33994156 0.2524234 0.00318974
0000e0 5e ab 14 bd 09 1c 8e bd ed 9d 70 3d 83 95 07 3f
       -0.03629624 -0.06938941 0.05874436 0.5296251
0000f0 ae 70 d5 3e 5f 07 98 3e f6 98 8a 3e be cb 77 3e
       0.4168753 0.29693124 0.27069825 0.24198815
000100 cb 82 01 3f 68 cb 92 3d 48 a7 ab 3d 86 46 eb bd
       0.505902 0.07167703 0.08381516 -0.11488061
000110 d1 31 f8 bd f9 02 84 bd 27 ce e9 3c 92 5c c0 3e
       -0.12118877 -0.064458795 0.028540684 0.37570626
000120 08 be 81 3e 50 41 75 be 89 ef 99 3d 64 de f3 bd
       0.25340295 -0.23950696 0.07516391 -0.11907652
000130 a3 dd 1f 3e 93 bd b3 be 29 7a 1c 3f 5d 2e 94 3e
       0.15611891 -0.3510557 0.611239 0.28941622
000140 3b 2a 6f 3d d3 c0 b5 3e c0 3a cc 3e 64 d4 fd 3d
       0.058389883 0.35498676 0.39888573 0.12394026
000150 9f 52 66 bd de 1b be 3e 97 e3 0b 3f 1c 70 28 3f
       -0.056231137 0.37130636 0.5464415 0.65796065
000160 34 a0 22 3e c4 9e 0b be b2 16 e9 34 a0 05 20 be
       0.15881425 -0.13634783 4.3416145e-07 -0.15627146
000170 1f f4 c8 bc da d6 dc 3d 93 af 8b 3e 09 84 5c be
       -0.024530469 0.10783167 0.2728239 -0.21534742
000180 74 36 ee bd b6 4a b0 bd 2a f1 d3 bd 65 0e be 3b
       -0.1163148 -0.08608 -0.10348733 0.005800056
000190 6c d7 b0 3e 35 de cf 3e 13 dd f5 bd d6 ed 8c 3c
       0.34539354 0.40599218 -0.12005057 0.017203253
0001a0 0b 7b 1f 3f 66 3a fa 3e d3 4e 00 3f ae 19 fe 3d
       0.62297124 0.4887268 0.50120276 0.12407242
0001b0 03 9d 45 bc 47 2e 6c 3d 0d 1e d5 3e 05 0a b0 3e
       -0.01206136 0.05766132 0.4162449 0.34382644
0001c0 5a da 06 3f 7c 7d 50 3e 32 14 80 3c 1b f7 20 bd
       0.5267693 0.20360368 0.01563463 -0.03929816
0001d0 4a fc 39 bd b5 e6 d2 3e 68 ba 41 3e fb c5 1b be
       -0.045406617 0.4119164 0.18918765 -0.15212242
0001e0 1b 63 0a 3f db 64 83 be eb 63 2e be 4f 3c 65 bd
       0.5405747 -0.25662884 -0.17030303 -0.055965718
0001f0 1e e1 cd be 6a e5 ce 3d 33 84 10 be 95 94 80 be
       -0.40210813 0.10102351 -0.1411293 -0.2511336
000200 cf fe 9c be d5 11 c4 bd 74 b7 10 be 5e ee 6d 3e
       -0.30663154 -0.09573714 -0.14132482 0.23235461
000210 01 2e 65 bd 6a 8e a5 be 48 67 19 be 82 d2 6b 3d
       -0.055952076 -0.32335216 -0.14980805 0.057573803
000220 6d 78 6a bc 4d f5 b0 3e ba df 99 bd f2 ed 85 3e
       -0.014310938 0.3456215 -0.075133756 0.261581
000230 b3 de 8b 3c 42 a1 fa 3e 7d 1f b9 3d 57 0c 14 be
       0.017073965 0.48951155 0.09039209 -0.14457832
000240 83 17 83 3e bc ce 10 3e cd 7b 4e be ad bc 5d be
       0.25603876 0.14141363 -0.20164414 -0.21654005
000250 e5 66 c9 3d 31 99 2f 3e ac 52 26 be 92 78 bd be
       0.09834079 0.17148282 -0.16242474 -0.3700605
000260 a5 6a 1c bd 4b d1 64 3c 53 2b 2a be 25 bc 87 3d
       -0.03818764 0.013965915 -0.1661809 0.066276826
000270 85 21 87 3e f2 13 16 be 23 a0 d2 3e e1 35 4b bd
       0.2639276 -0.14656046 0.411378 -0.04961193
000280 c2 8c e6 be 54 22 1b be 41 d3 41 3d a7 ff 56 3e
       -0.45029265 -0.15149814 0.047320608 0.20995961
000290 ac be b3 be 2b 24 1d be 32 fb e8 3e 42 d7 fe 3c
       -0.3510641 -0.15345828 0.45504147 0.031108502
0002a0 48 84 09 3f 15 6e fa bd 8b 5c 2b bd 3e 9e 18 be
       0.5371747 -0.12228028 -0.041836303 -0.14904115
0002b0 cb 43 df be 89 ea e5 3e c3 54 39 be cc 9b 25 bc
       -0.4360641 0.449055 -0.1809874 -0.010107946
0002c0 dc 4e 1b 3d 27 4d c6 3e e1 0f 16 3f e7 35 55 3d
       0.037917003 0.38730738 0.5861798 0.05205336
0002d0 10 a6 38 bd d0 fc 56 be ee cc 8b be 9a 77 e4 3e
       -0.045080245 -0.20994878 -0.27304786 0.446225
0002e0 03 73 2e 3c 6a 83 a3 3d 8b 01 67 bd 63 a4 74 3e
       0.010647538 0.079840496 -0.056397956 0.23890834
0002f0 43 53 f0 be f3 a5 61 be 80 66 da b9 51 89 5e be
       -0.46938524 -0.22035961 -0.0004165657 -0.2173207
000300 bf 39 62 3e bb 42 ce 3e c5 fe 12 3d a1 c8 5f be
       0.22092341 0.40285286 0.0358875 -0.21853878
000310 14 3e 03 bf 77 b6 d8 bd d6 c9 12 be 9b ed 94 be
       -0.512666 -0.105816774 -0.14334807 -0.2908753
000320 e6 ce 66 3c 0c 63 51 3e 3d 2b 12 3d 30 c2 66 3e
       0.014087414 0.2044794 0.035685766 0.22535014
000330 62 14 30 3f 25 4d d4 3e 8b 82 c3 3e f8 4b 23 3f
       0.687811 0.41465107 0.38185534 0.63787794
000340 92 f9 f1 3d 2d e3 0a 3e 4e a5 49 be fb b6 a7 be
       0.1181518 0.13563223 -0.19691965 -0.3275679
000350 77 92 da 3d 5c 20 c6 bd 40 87 83 bd 0e cd 69 be
       0.10672467 -0.09674141 -0.06422281 -0.22832128
000360 f8 9b 63 be 17 1f a2 be 7c f7 93 be 61 f2 a7 be
       -0.22227466 -0.31664345 -0.28899753 -0.32802108
000370 c2 0d d8 bd a7 59 57 bd 6f e7 00 be 6b 82 3c 3e
       -0.10549499 -0.052575734 -0.12588285 0.18409126
000380 07 49 7c be 02 9f 95 bd 24 50 b4 3e 23 f1 3f be
       -0.24637233 -0.07305719 0.35217392 -0.1874433
000390 62 9a b5 3e da a2 df bc 46 95 ba 3b b9 24 00 3d
       0.35469347 -0.027299333 0.0056940643 0.03128502
0003a0 be a9 92 be d6 ff 57 be 35 9a bc be 1d e1 8e 3d
       -0.28645128 -0.21093687 -0.368364 0.06976531
0003b0 84 5b 7a bd 42 8e e2 3d b1 07 98 bd ea 18 85 3c
       -0.061122432 0.1106229 -0.07423342 0.016247232
0003c0 77 67 86 3e f9 98 b0 3d 9a d0 05 3c c5 15 09 bf
       0.26250812 0.08622927 0.00816741 -0.5354884
0003d0 ba d2 83 be 6d 15 84 3c 63 fa de bc 95 e2 5f be
       -0.2574671 0.016123498 -0.027219003 -0.21863778
0003e0 75 02 05 be 3d ce c4 bd 23 c1 03 be 7a 8e a8 be
       -0.12989219 -0.09609649 -0.12866645 -0.329212
0003f0 c8 ab 2e be 1a 42 85 be 54 84 04 bd 7f ef 3a bd
       -0.17057717 -0.26026994 -0.03235276 -0.045638558

fc2.bias f4 [100]
000000 cd 72 2c 3e 72 40 04 3f 1d ec 97 3f 01 a5 7c 3e
       0.16840668 0.51660836 1.1868931 0.24672319
000010 ab c4 15 3f dd 99 39 3f c9 10 6c 3e 7a 53 2a 3f
       0.58503217 0.725004 0.23053278 0.66533625
000020 0c af d1 3f 3f 76 7d 3f 5e 08 fa bc b3 2c 74 be
       1.6381545 0.99008554 -0.030521568 -0.23845176
000030 64 21 ba be 74 c2 1f be 71 cb e6 bd 1d 21 4f be
       -0.363536 -0.15601522 -0.11269272 -0.20227475
000040 44 87 66 3e a8 7d e7 bd 7a 4f 54 be 6c 52 9e be
       0.22512537 -0.11303264 -0.20733443 -0.30922258
000050 9c 2b 7a 3f 26 b0 88 3f 46 04 43 bd 8c 71 93 be
       0.9772279 1.0678756 -0.047611497 -0.28797567
000060 e9 cb 91 3f dd ad 04 3e 22 10 2f 3e 8b af 09 be
       1.1390353 0.12956949 0.17095998 -0.1344587
000070 84 6f 02 3f 1a eb 9a 3d 2e 0e 43 bd f8 2d f8 be
       0.5095141 0.07564373 -0.047620945 -0.4847257
000080 48 04 43 bd 47 04 43 bd 47 04 43 bd 38 47 b5 3f
       -0.047611505 -0.0476115 -0.0476115 1.4162359
000090 06 6c 8f be bc 82 b7 bc e3 30 0a 3f 37 b9 68 be
       -0.28012103 -0.022401206 0.53980845 -0.22726904
0000a0 71 8e 78 3e ed b6 a9 3e 47 04 43 bd 23 e2 98 be
       0.24273087 0.33147374 -0.0476115 -0.2986003
0000b0 40 04 43 bd 22 64 c7 3f 5e 3b 00 be cc d1 d8 be
       -0.047611475 1.5577433 -0.12522647 -0.42347562
0000c0 25 db d3 bd 85 da ee 3e af 74 95 bd b1 04 43 bd
       -0.10344533 0.46651092 -0.07297646 -0.047611896
0000d0 14 04 43 bd f7 0a 37 3f d4 fc bc bd 67 04 43 bd
       -0.04761131 0.71501106 -0.09227911 -0.04761162
0000e0 d2 86 aa bd f4 c9 98 be 60 f9 11 3e 29 61 16 3f
       -0.08326496 -0.29841578 0.14255285 0.58742005
0000f0 10 95 a9 3e 54 ba 58 3e 25 77 5a bd 46 04 43 bd
       0.33121538 0.21164829 -0.05333628 -0.047611497
000100 80 1e a5 3f 48 04 43 bd d3 04 43 bd 71 99 00 be
       1.2899933 -0.047611505 -0.047612023 -0.12558533
000110 ac 28 da 3c c4 72 84 be 47 04 43 bd 45 4a 07 be
       0.026630722 -0.2586881 -0.0476115 -0.13211925
000120 db 90 98 bd 95 10 a3 be 46 04 43 bd 47 04 43 bd
       -0.07449504 -0.3184859 -0.047611497 -0.0476115
000130 e6 e3 31 be 4a 04 43 bd 49 09 84 3f 14 7c a3 3c
       -0.17372093 -0.047611512 1.0315334 0.019956626
000140 ad c9 55 3f f6 b3 05 3e 79 6b 8b bd 2f 98 9b 3f
       0.8351086 0.13056931 -0.06807608 1.2155818
000150 47 04 43 bd 91 18 91 be 7d 7e 8d 3c ce bd d0 3f
       -0.0476115 -0.28339055 0.017272228 1.6307924
000160 95 98 1c bd 4a 65 31 be 1e 04 43 bd 8c c7 93 be
       -0.03823145 -0.17323795 -0.04761135 -0.2886318
000170 e8 cd b1 3e 44 23 b9 be 72 85 8b be a4 47 92 be
       0.34727407 -0.36159718 -0.27250248 -0.28570282
000180 14 de 99 3d b0 08 a2 be f3 e3 6e 3e 45 04 43 bd
       0.07513061 -0.31647253 0.23329143 -0.047611494

fc3.weight f4 [10, 100]
000000 07 a6 db bc 03 e7 21 3d 57 9b 1f bd c3 75 9f 3d
       -0.026812566 0.03952695 -0.038966503 0.07786133
000010 d2 37 b1 3d bf 9f af bd 90 84 16 bd 60 53 94 bc
       0.08653225 -0.08575391 -0.036747515 -0.018106163
000020 d7 a6 66 bd eb 5e a1 3d cd 80 aa ba ca c4 34 3d
       -0.056311455 0.07879432 -0.0013008356 0.044132985
000030 cd 73 d0 bb d7 1a 13 bd cd 62 48 bd bd da 6e 3d
       -0.006361461 -0.03591427 -0.04892235 0.058314074
000040 6a 88 20 bd 60 a4 fb 3c 08 83 ad bd d0 ba 1c 3d
       -0.039192595 0.030718029 -0.08472258 0.038264096
000050 60 d4 e2 bc 8a 44 99 bd b8 23 b2 3d 33 a9 9c 3d
       -0.027689159 -0.07483776 0.08698219 0.0764946
000060 77 52 00 3d e0 13 cb bc 6b 19 c6 3d 20 e6 de 3c
       0.031328645 -0.02478975 0.09672817 0.027209342
000070 33 e7 7b bb 3f 63 87 bd fd 98 1e 3d ed dd 68 bd
       -0.0038437366 -0.066107266 0.03872012 -0.05685227
000080 ba 27 bd bc d0 80 46 bd b8 c6 95 3d 03 2a 54 bd
       -0.023090232 -0.04846269 0.07313293 -0.051797878
000090 a7 21 a6 bc 3a ad 95 bc 53 4f 52 bd da fe ad bd
       -0.020279719 -0.018271077 -0.05134518 -0.08495875
0000a0 cd 7a 18 3c d0 4a 2e 3d 67 06 65 39 9a 90 f8 bb
       0.009306622 0.042551816 0.00021841527 -0.007585597
0000b0 07 36 1e 3d 5a d6 2d bd d8 c1 b1 3d 33 30 29 bb
       0.038625743 -0.04244075 0.08679551 -0.0025816082
0000c0 fb d3 be 3d 0d a9 e5 bc 10 6e 28 3d e8 00 bf 3d
       0.09317776 -0.028034711 0.04112059 0.09326345
0000d0 e0 1c c5 bd 7a 25 51 3d 5a 30 89 3d 23 c1 48 3d
       -0.09624648 0.05106113 0.066986755 0.049012315
0000e0 e0 e1 29 bd e5 dd a7 3d c0 f1 19 3d 67 c5 73 3b
       -0.041475177 0.0819662 0.037584066 0.0037196518
0000f0 50 d4 6c 3d 1a 5c 67 3d c2 31 9c 3d 1a d8 e5 3c
       0.057819664 0.05648432 0.07626678 0.028057147
000100 a7 96 e1 bc cd 12 4b 3b 52 df a0 bd 20 bb f8 3c
       -0.027537657 0.0030986548 -0.07855095 0.030362666
000110 33 0d 85 3d 77 74 a1 bd 67 2f 04 bc dd 04 0f bd
       0.06496658 -0.07883542 -0.008067942 -0.034916747
000120 6a a3 79 bd c7 e9 5a 3d b2 89 81 bd f3 0a b1 bd
       -0.06094686 0.053445604 -0.063250914 -0.086446665
000130 90 9a 8f bd c5 bc 9c 3d da bf 89 bc 1a 95 9b bc
       -0.07011902 0.076531924 -0.016815115 -0.018991996
000140 f0 2d 5f bd a5 6c 93 3d db 88 ab 3d 2a 31 98 3d
       -0.05448717 0.07198457 0.083757125 0.07431252
000150 7a b9 26 3d 75 5e ac 3d ba c7 98 3c d0 6c 56 bd
       0.040704228 0.08416454 0.018649925 -0.052349865
000160 33 c1 6e bb 87 64 41 bd 90 b3 83 bd 3d e8 b7 bd
       -0.0036431074 -0.04721501 -0.06430733 -0.08979843
000170 80 71 f3 bb e0 97 e8 3c 1d e3 79 bd aa f8 6b bd
       -0.0074293017 0.028392732 -0.061007608 -0.05761019
000180 d0 18 bd 3d 73 95 b0 bd 93 c3 71 3d c5 32 a6 bd
       0.09233248 -0.08622255 0.059024405 -0.08115152
000190 9d e6 1a 3d da fc 93 bd fa 74 ba 3c 40 c5 0c bd
       0.037817586 -0.07225962 0.022760857 -0.0343678
0001a0 28 f5 9a bd 2d 23 23 bd 30 a7 8f 3d 8d 29 03 bd
       -0.07566291 -0.039828468 0.0701431 -0.032022048
0001b0 53 1f d6 3c 4d f4 5b bc 1b 01 99 bd 8d 78 91 3d
       0.026137983 -0.013424945 -0.07470914 0.07103071
0001c0 9a c3 48 3d 38 32 90 bd e0 ee b9 3d 97 a3 80 bd
       0.049014665 -0.070408285 0.09078765 -0.06281202
0001d0 45 d6 c8 3d a3 52 7b bd a0 96 8f bd d2 30 c5 bd
       0.09806494 -0.061358105 -0.07011151 -0.09628452
0001e0 6d c4 c3 bd 32 3c c5 bd 13 5e 88 bd b7 6d 4d 3d
       -0.095589496 -0.09630622 -0.06658568 0.05015346
0001f0 03 db 1d bd 20 f1 95 3d 40 89 b6 bc 80 65 4f bd
       -0.038538944 0.073213816 -0.022282243 -0.050633907
000200 5b 61 91 bd 0d 6c 93 bd 10 8c c9 bd 6d 78 82 bd
       -0.07098647 -0.071983434 -0.09841168 -0.06370626
000210 40 6d 53 bd 4d 17 19 bc 80 41 23 bc e3 48 9a bd
       -0.05161786 -0.009343934 -0.009964347 -0.07533433
000220 70 32 6f 3d 60 c9 c7 bc f7 c2 76 bd 33 76 94 3d
       0.05839771 -0.024388015 -0.060244527 0.07249107
000230 4f 12 a3 3d 67 23 e6 bc 08 f0 af bd 72 a0 ac bd
       0.079624765 -0.028093053 -0.08590704 -0.0842904
000240 70 76 03 bd e0 e8 ff 3c 33 3a 1b 3d 5a 18 75 3d
       -0.032095373 0.031238973 0.0378973 0.059837677
000250 0a a6 72 bd cd 4d 3a 3d ed e4 77 3d 3f f2 b2 3d
       -0.05924038 0.045484353 0.060521055 0.08737611
000260 0d 4a d1 3c 80 05 2a 3d d0 aa 22 3d fa 74 4b bd
       0.025548005 0.04150915 0.03971368 -0.049672104
000270 8d ff 43 bc 4d 68 41 bc 2d 13 58 bd 73 9e 38 bc
       -0.0119627835 -0.011804652 -0.052752662 -0.011268246
000280 b0 7f 4f bd 60 ab a8 3c 47 61 84 3c ea 1f 30 3d
       -0.05065888 0.02058953 0.016159667 0.042999186
000290 4b 96 92 3d 27 43 73 3d e7 26 11 3c 00 96 9d 3a
       0.07157572 0.059390213 0.008859373 0.0012022853
0002a0 c3 2c 05 3d b5 f1 bd bd 35 13 a0 3d 90 58 c6 3d
       0.03251339 -0.092746176 0.078161635 0.09684861
0002b0 52 cc bc 3d da 4c 10 bd 87 64 95 bc fd b3 a1 3d
       0.092186585 -0.03522954 -0.018236412 0.07895658
0002c0 f0 74 bc 3d b3 06 70 bd 0d c3 a4 3c 27 19 23 3c
       0.092019916 -0.05860014 0.020112539 0.009954727
0002d0 f7 13 14 bd 1d bb 17 3d 42 23 93 bd 9a 9f 76 bb
       -0.036151852 0.03704368 -0.07184459 -0.003763175
0002e0 03 d7 87 bd 4d 47 d9 bb 8d 38 ce 3c 8d ea 1f 3c
       -0.06632807 -0.006630814 0.02517345 0.009760511
0002f0 87 e2 8d 3d d3 dd 9e bc 43 04 ae bd b3 85 3d 3d
       0.06927972 -0.019392883 -0.084969066 0.046270084
000300 bd e9 b6 3d f3 58 0c 3d bd 32 9d bd fd 16 56 bd
       0.08931301 0.034264516 -0.07675693 -0.052268017
000310 93 cf 1f bd b3 40 ab 3c 87 64 73 bd 70 b7 7f 3d
       -0.039016318 0.020904874 -0.059422042 0.0624308
000320 4d e0 36 bc d3 0e 89 3c aa 4b 5a 3d 83 42 a7 3d
       -0.011161876 0.016730702 0.053294815 0.08166983
000330 0d 3f 52 3d 60 86 b4 bc 07 58 bb 3c cd 1c 6b 3d
       0.05132966 -0.022036731 0.022869123 0.057400513
000340 38 cc 9e 3d da 66 d9 3c ea a3 c4 bd b3 b0 2d 3c
       0.077537954 0.026538301 -0.096015766 0.01060121
000350 9a 2f cf bc 20 5e 85 bd 0a 53 69 bd da 74 d3 3c
       -0.025291253 -0.065120935 -0.056963958 0.025812555
000360 ef 2b 97 3d a7 28 2b 3d 13 99 15 3d d7 74 34 bd
       0.073814265 0.041786816 0.036522936 -0.04405674
000370 40 22 af 3d 20 08 1f bd db b8 ca bd cb cf 92 3d
       0.085514545 -0.038826108 -0.0989854 0.071685396
000380 0d 37 6d bd c0 40 34 3d e8 12 c2 bd 90 2f 97 bd
       -0.05791383 0.044007063 -0.09476262 -0.07382119
000390 27 50 70 bd a8 b5 be 3d 1d 45 77 bd 20 fb b1 bd
       -0.05867019 0.09311992 -0.060368646 -0.086904764
0003a0 b8 32 81 bd 0d 91 83 bc a3 15 18 bd b3 9e 1f bc
       -0.06308502 -0.016060377 -0.03713001 -0.009742427
0003b0 ba c1 c7 bd 53 15 87 bd 67 a9 3c bb e7 f1 cf 3b
       -0.09753747 -0.06595864 -0.0028787495 0.0063459757
0003c0 e8 94 b9 bd 8f fd bc bd 5d 48 0d bd 5d 39 89 3d
       -0.09061605 -0.0922805 -0.03449284 0.06700394
0003d0 ba c5 3f 3d c0 c5 93 3d f7 98 c4 3d da e7 c8 3d
       0.046819426 0.07215452 0.09599488 0.09809847
0003e0 9a 45 86 bc 0d c8 2e 3c b7 e3 75 3d 9b 0f 82 3d
       -0.01639061 0.010667813 0.06003162 0.06350633
0003f0 ba 53 a1 3c c0 f4 3f 3d eb aa c1 bd ed 61 28 3d
       0.019693244 0.04686427 -0.09456428 0.041109014

fc3.bias f4 [10]
000000 6d 35 95 bc 57 1f 2b bd 58 88 ac bd b2 57 85 3d
       -0.018213952 -0.041777935 -0.08424443 0.06510867
000010 a5 e4 a9 3d fb 42 af 3d 67 16 ba bc 9d 71 aa bd
       0.082955636 0.085576974 -0.02271576 -0.08322451
000020 5a 6f 5b bd 3a 17 ad bd
       -0.05357299 -0.08451696
